models/anime/model.pt (torch, 937668 bytes, 57 tensors)

transformer.wte.weight f4 [116, 64]
00000000: 55e0 efbf 93e8 353e 8476 c23f c743 f03f
00000010: 98b6 47bf 1ee5 5cbf 9800 87bf 5679 fd3e
00000020: 43b7 b53f fa28 f03e 9eb5 b6bf 519a 343e
00000030: efb9 aebf 4385 ab3f 8bf3 21bc 96fe 273f
00000040: 2edb 9f3f 2c4f 753f adfb 34bf 1a18 913f
00000050: af2a 013f 0f69 04c0 c4f2 aa3f 3105 8e3e
00000060: 9d8e ce3f d5f3 09bf 7578 8abf 66fe 533e
00000070: c2db 21bf 2aad c23f 04d5 55bf b478 03be
00000080: 4e67 973f e27c a73e 2833 24bf 5237 fbbe
00000090: 59cf 97be 14bb 9dbe 578e 543f 834d aabf
000000a0: c1bd c83e 922f 32be ef4b 18be 7b41 9fbf
000000b0: 0744 903d 6426 5d3f 6f0e 0dbf 8722 eabf
000000c0: 0515 b53f daf2 7cbf 9806 803f bde5 ca3e
000000d0: 3106 27be 8ad3 56bf 4018 79be a752 71be
000000e0: 8522 22bf c0be dbbe cf52 6b3f a1c8 0c3e
000000f0: 321b e43e 5389 4dbf 3bb5 803f c4ad 44bd
00000100: c710 163f 0c1b 433f a7f2 bfbe bfa4 bcbd
00000110: 39da 7cbe 8ef6 ad3f 4483 1a3f 9858 69be
00000120: e335 0d40 309d 883f 7fab 80bf a4ae c7bf
00000130: 3f7b 0e3e 4986 7bbe a513 9fbe 443c e03f
00000140: 8d30 2bbf 79f8 073f 0f46 e73d 62bd 89bf
00000150: a122 143f 3579 a3be b76a 54bd 607a 34be
00000160: f609 15be 9542 0f3f 44bb 753f 1419 54be
00000170: cd20 47be dfc8 2abf 805b cf3d 92ec 78bf
00000180: d906 c3bf ab7b 673e 9dd5 493f 0a36 57bf
00000190: 4813 65be 3602 0f3f 0048 42bf 011a 8ebf
000001a0: fc89 eb3d 5928 853f f937 17bf a4ef 0c40
000001b0: 79d9 63bf 97a3 eebf 8e48 0c3f 07a7 83bf
000001c0: 262f 2f3f e8a3 96bf 6462 56bf 18e1 923d
000001d0: e764 ba3b 3e59 3bbe 083c 17bd 82c3 3cbf
000001e0: 2169 64bf c5ed 09bd af20 64be 9b5c ff3d
000001f0: 3c3f 5bbf e715 d53e af7f e9bd 2dad 79bd
00000200: edda 94be 49be babe a2f2 763f 4634 83bf
00000210: 6242 983e ae69 d33e 6c9e bbbe 93aa 963f
00000220: e618 acbf 2a80 ec3e f693 463f 6fc7 43bf
00000230: f64b fa3e 6842 1d3e ac0e 0ebf e6a3 5bbf
00000240: d190 d8be ca2f 9bbd 2680 9a3e 44ab 3a3f
00000250: 153f 293e 7c27 853f b86d 3d3d 166a c23e
00000260: 07b2 31bf 263e 32bd 19fa df3c 3026 60be
00000270: 4a3c d8bf b8ae a43f 1f56 7bbf c2c6 353f
00000280: eca2 60be 2165 713f 28ec 84be bd4b 49bf
00000290: 896a d83e 6956 0ebf 384a 203f 1f93 00bf
000002a0: 153f 2c3f a28a 37bf b8a7 7dbe 75d8 ec3e
000002b0: 5e2f 4c3e 1be7 0d3e df2b 17bf a1c9 c13f
000002c0: 1589 ee3e 2b97 813c 551a 0e3f 1e64 a1bf
000002d0: acf5 73bf c846 3e3f 7455 35bf cda2 19bf
000002e0: d6b0 1c3e 15ca 7bbf c259 3c3f 42e7 87bf
000002f0: 48b3 f9bf 85e6 03bf fa80 31be d1d6 e6bf
00000300: 8499 4d3f 56c0 3ebf 4b66 063f 62d1 a93f
00000310: 8275 febf 493a 44bf 3375 2c3f fca3 5f3f
00000320: 68db 813f 6e17 cc3f 57a5 873e 491c e1bf
00000330: 2216 30bf 86be 07c0 7202 813f dbe4 8f3e
00000340: 5f48 22bf 7966 14bf c594 6b3f b4a7 993f
00000350: bcbb 85bf c91a e2bd c830 fbbe ea21 b73d
00000360: e50f d63f 2e1d 413f ba4c d43f 1c05 fe3e
00000370: 4b3d 1b3f cea8 173f 3ff8 903f c6ee 3cbf
00000380: 9777 4cbf d45e 14c0 93b9 cd3f dd10 c3bf
00000390: 6799 353f b597 433f aaaf d6be 43a1 30bf
000003a0: c2a3 a5bf c8b9 c23e 24e1 d9be 9ce2 2a3f
000003b0: d397 2e3f 44ec 473e dba3 2abf a767 05be
000003c0: 561e 5e3f 3719 b4bf 9f54 c83d e19b 6ebf
000003d0: 0e20 473f 31c7 eb3e 6c2d 8cbe a86f c13f
000003e0: 0654 6d3f ffd5 7ebd 9ab4 0cbf cae0 1abf
000003f0: 3987 a93e 88c5 863f 9645 9fbf 735d 033f
-1.8740336 0.17764501 1.5192418 1.8770684 -0.7801299 -0.86287105 -1.0547056 0.49506634
1.4196552 0.46906263 -1.4274175 0.17636992 -1.3650492 1.3400043 -0.009884725 0.6562284
1.2488763 0.9582393 -0.70696527 1.133548 0.50455755 -2.0689123 1.3355336 0.27738336
1.6137272 -0.53887683 -1.081801 0.20702514 -0.6322595 1.5209095 -0.8352816 -0.12839013
1.1828401 0.32712466 -0.6414056 -0.49065644 -0.2965038 -0.30806792 0.83029693 -1.3304905
0.3920727 -0.17400959 -0.14872716 -1.2441858 0.07044225 0.86386704 -0.5510015 -1.8291787
1.414704 -0.9880806 1.0002012 0.396284 -0.16310956 -0.83916533 -0.24325657 -0.23566686
-0.6333392 -0.42918968 0.9192323 0.13748409 0.44551998 -0.80287665 1.0055307 -0.04801728
0.5861935 0.76213145 -0.37489817 -0.0921111 -0.2469262 1.3590868 0.60356545 -0.22787702
2.206414 1.067297 -1.0052336 -1.5600171 0.13914202 -0.24562944 -0.31069675 1.7518392
-0.6687096 0.53113514 0.112926595 -1.076092 0.5786534 -0.3192841 -0.051859584 -0.17624807
-0.14554581 0.5596097 0.9598887 -0.20712692 -0.19446106 -0.66712755 0.10124874 -0.9723598
-1.5236465 0.2260577 0.78841573 -0.8406683 -0.22370636 0.5586275 -0.75891113 -1.1101686
0.11500928 1.0402938 -0.5906978 2.2021265 -0.8900371 -1.8643674 0.5479821 -1.0285348
0.6843132 -1.176877 -0.8374388 0.071718395 0.005688298 -0.18295762 -0.036922485 -0.7373582
-0.89222914 -0.03367402 -0.22278093 0.12468835 -0.85643363 0.41618273 -0.11401307 -0.06095617
-0.29073277 -0.364733 0.9646398 -1.0250328 0.29738146 0.41291565 -0.36644304 1.1770805
-1.3445098 0.4619153 0.7756952 -0.76476187 0.4888608 0.15357363 -0.5549114 -0.85796964
-0.42297986 -0.075774744 0.30175894 0.7291758 0.1652797 1.0402675 0.046247214 0.37971562
-0.69412273 -0.0435163 0.027340936 -0.21889567 -1.6893399 1.286582 -0.98178285 0.71006405
-0.2193715 0.94294935 -0.25961423 -0.7863119 0.4226878 -0.556006 0.6261325 -0.5022449
0.67283756 -0.7169591 -0.24771011 0.46258894 0.19939944 0.13857691 -0.59051317 1.5139657
0.4658896 0.015819153 0.5550893 -1.2608678 -0.9529674 0.74326754 -0.70833516 -0.6001404
0.15301833 -0.9835523 0.7357446 -1.0617449 -1.9507837 -0.5152362 -0.17334357 -1.8034307
0.8031237 -0.7451223 0.52499837 1.3267024 -1.987961 -0.76651436 0.6736633 0.87359595
1.0145082 1.594465 0.26493332 -1.7586757 -0.6878377 -2.1210036 1.0078871 0.2810429
-0.6339168 -0.5796886 0.9202388 1.2004304 -1.0447917 -0.11040265 -0.49060655 0.089420155
1.6723601 0.7543515 1.6585915 0.49613273 0.606404 0.5924195 1.1325759 -0.7380184
-0.7986998 -2.3182878 1.6072258 -1.5239521 0.709372 0.7640336 -0.41930896 -0.68996066
-1.29406 0.38032365 -0.4255458 0.6675203 0.68200415 0.19523722 -0.66656274 -0.13027821
0.8676504 -1.4070195 0.09781765 -0.932066 0.77783287 0.46050408 -0.27378404 1.51122
0.92706335 -0.0622158 -0.54963076 -0.6049925 0.3311098 1.0529032 -1.2443111 0.5131447

transformer.wpe.weight f4 [55, 64]
00000000: 7a76 89bf 40fa 09bf 0482 4a3f 23a0 ac3e
00000010: f05e b3be 5a7c c83c 019d 193f 591f 6d3e
00000020: ff5b 48bf 3e89 8fbf 6ebd 63bf 209d ea3b
00000030: 7b4e 80be 7ed8 1c3f 8740 8abf 8db2 0a3f
00000040: ca52 883f ae47 e73e 77ef 3cbf c637 01be
00000050: 818a 0140 66a3 eb3d 8925 993f ef88 88be
00000060: c286 2e3f 1f8b f03f 1ad9 323f f0d0 0fbf
00000070: 9dd3 a43f 7c42 613f f991 2fbf 0f79 673f
00000080: 4a86 d8bf 1f6d d1bf abd1 82be 595c e83d
00000090: c98a 1c3f 686e dabe 8772 27bd cc67 bbbe
000000a0: c636 bc3e 99b7 7e3f 2fb9 9b3f 77b2 d13e
000000b0: 9900 723e aa1a 0a3c 446e 173f 5437 b5bd
000000c0: 4fa9 dcbe 8036 8f3b 0087 1bc0 1538 c3be
000000d0: c365 8cbd 1443 c83e a0c7 90bf b929 093f
000000e0: 2fd2 703e c919 633f d1ec be3f 7631 1cbd
000000f0: 8022 43be f315 c0bf f088 403e 5295 6d3e
00000100: 823d 4d3f 9b03 743f bb4a 493e ae3f 903d
00000110: b0ca cb3d 9d6a 7b3f 8d60 6ebf 6ebb e8bc
00000120: a6d3 303f 7464 a13f df5d 97bf d0de 493e
00000130: ce45 a63e 3032 d1bf 67e9 96bd f1c9 71bf
00000140: d33e 6e3f a440 9d3f ca9a 323f de12 613f
00000150: 2bd7 aa3f df13 e3be 74b5 0dbe 6db3 ec3e
00000160: cab4 aabd e605 343e 1a4b 0c3e 9032 94be
00000170: cf2f fd3e c8d8 85bf 977c 953e 724a c83e
00000180: c7c8 493f 77ca 2cbe f298 b5be e2c2 55bf
00000190: c940 9ebd 7713 7a3f 1d74 b6be d3cd 183f
000001a0: c436 abbf eb3a 5abf 8786 4b3f de11 a2bd
000001b0: 6f9d a13e 0543 38bf 2b17 5fbf 8459 17bf
000001c0: 3755 fbbe 514c d23c 935c 3fbe e929 7fbe
000001d0: c2a3 573f 3251 adbe 2ce6 14bf 345b 883e
000001e0: b9d3 b43f 7848 933f 87fe 463f 8007 b43d
000001f0: 93b7 573e 4f43 233e 8396 d5bd aa8b 113f
00000200: add5 603e f1b7 193f e27b 45be e471 a1bf
00000210: b8f5 67bf 1807 05bf 2d52 953e a626 ffbe
00000220: dc24 f73c ad64 92bf 451c 5fbe 48ee 95be
00000230: aec6 79bf 83b4 2d3f 9534 943e f484 723f
00000240: 0b70 9d3f 8bc6 fbbe 0324 8dbe 4d32 9abf
00000250: f25b b83f 6d27 5abf 8c0e 9abe 3e6a f3be
00000260: c615 4a3f 0039 7a3d 19fa 913f 66e9 3ebf
00000270: 73fd 873f 792a 9c3f 2ef3 b2bf 4863 233f
00000280: 9db3 6b3f f20f c83e 2cce a23e 5b0d 78bf
00000290: 382a bf3d f44f 513f 4d72 4a3e 482d 72bf
000002a0: 58c7 5abf 8064 3c3f 0131 b43d 6020 44bf
000002b0: 2a4f 0bbf 0dfb 63bf 7edb 0c3e 679f e53e
000002c0: 3411 aebe 9fc2 333e 60a5 5a3f 52d0 783d
000002d0: 6132 90be 1173 12bf c4b6 bebe e3a2 803c
000002e0: edfa 993e 256f 18bf be6f a63e 5fa7 713f
000002f0: d4cd 06be 235f 64bf 074c 3a3e 2a70 da3d
00000300: 67b2 913c 6857 a13e 7378 cfbf 1bc5 c5bf
00000310: 520a c23f 10f4 01bf 4cb0 8cbf c370 6cbf
00000320: 597b d5bf 803b 54bf a198 3abf 5072 47be
00000330: a3cb a4bf 40d8 aa3f 13e4 733f aedd f23e
00000340: 519b cabe 13be ff3e 9f41 983e f809 07bf
00000350: fc04 dabe 8a34 903f 4cdf 22bf fd02 5c3f
00000360: a08b 143e 5630 c1be ab81 883d 96cd f3be
00000370: 2b35 3fbe 5597 81bd 47ed 5e3e d683 8f3f
00000380: 4b09 7c3f 912e a83f f93f e73e 769a f4be
00000390: 8e0d 43bf 1667 8dbd dde9 923e 026a 1bbf
000003a0: 0e26 3a3f 3d20 763f 0ba2 3dbf b189 7c3e
000003b0: 4665 24bf b769 063f 4043 ce3e c04a 58be
000003c0: daf8 b53e 7289 60bf 22ed 593e 36c2 6bbf
000003d0: 13f8 a83e 4b29 b8be 0db9 a8be 572d 76bf
000003e0: 1aee 8dbf d446 eb3f 7dab 083f 68b7 72bf
000003f0: 8d45 77bf ce59 963f e306 ec3e a5ac 9d3f
-1.0739281 -0.53897476 0.7910464 0.33715925 -0.3503337 0.024473358 0.60005194 0.2315649
-0.78265375 -1.1213758 -0.8896092 0.007159844 -0.25059876 0.6126784 -1.0800942 0.54178697
1.0650265 0.45171875 -0.73802894 -0.12618932 2.0240786 0.11505775 1.196458 -0.26666972
0.68174374 1.8792456 0.6986252 -0.5617819 1.2877079 0.8799207 -0.6858211 0.90419096
-1.6915982 -1.6361426 -0.2555059 0.11345739 0.6114927 -0.42662358 -0.040880706 -0.36602628
0.3676054 0.994989 1.2165889 0.4095647 0.2363304 0.008429209 0.59152627 -0.088484436
-0.43097922 0.0043705106 -2.4301147 -0.38128725 -0.06855347 0.39113677 -1.1310921 0.5357929
0.23517679 0.8871122 1.4916021 -0.038133107 -0.1905613 -1.5006698 0.18802238 0.23201492
0.8017198 0.95318 0.19657414 0.07043396 0.09950769 0.98209554 -0.93116075 -0.028409686
0.6907295 1.2608781 -1.1825522 0.19713902 0.32475132 -1.6343441 -0.07368737 -0.94448763
0.9306461 1.2285352 0.6976744 0.87919414 1.3346914 -0.44351098 -0.1383875 0.4623064
-0.08335264 0.17580375 0.13700524 -0.28944826 0.49450538 -1.0456781 0.29196617 0.39119297
0.78821987 -0.16874109 -0.3546825 -0.8350049 -0.077272005 0.9768595 -0.35635462 0.5968906
-1.3376088 -0.8524615 0.7950215 -0.07913564 0.31565425 -0.71977264 -0.87144727 -0.59120965
-0.4908845 0.025671156 -0.18687658 -0.24918331 0.8423425 -0.3385101 -0.58163714 0.26632082
1.4127113 1.1506491 0.7773213 0.08790493 0.21066122 0.15943645 -0.104290985 0.56853735
0.21956511 0.600463 -0.19285539 -1.2612882 -0.9060931 -0.5196395 0.29164258 -0.49834174
0.030168943 -1.1436974 -0.21788128 -0.29283357 -0.97568786 0.67853564 0.28946367 0.9473412
1.2299818 -0.49174914 -0.27566537 -1.20466 1.440306 -0.8521641 -0.30089223 -0.47541994
0.78939474 0.061089516 1.1404449 -0.7457489 1.0624222 1.2200462 -1.3980463 0.63823366
0.92070943 0.39074665 0.31797922 -0.9689538 0.093342245 0.81762624 0.19770165 -0.94600344
-0.85460424 0.7359085 0.08798409 -0.766119 -0.5441767 -0.8905495 0.13755605 0.44848177
-0.339975 0.17554711 0.8540859 0.060745545 -0.28163436 -0.5720683 -0.37248814 0.01570267
0.30074254 -0.59544593 0.32507128 0.94396013 -0.13164455 -0.8920767 0.18193065 0.10665925
0.017785264 0.31511998 -1.6208633 -1.5450777 1.51594 -0.50763035 -1.0991302 -0.9235956
-1.6678268 -0.8290329 -0.72889143 -0.194772 -1.2874645 1.3347244 0.9526989 0.47434753
-0.39571622 0.49949703 0.29737565 -0.52749586 -0.42581928 1.1266034 -0.63621974 0.8594206
0.14506388 -0.3773219 0.06665357 -0.47617787 -0.18672626 -0.063276924 0.21770202 1.1212108
0.9845168 1.3139211 0.45165995 -0.47774094 -0.7619256 -0.06904428 0.2869405 -0.6070863
0.72714317 0.9614294 -0.7407538 0.246619 -0.6421703 0.5250506 0.40285683 -0.21122265
0.3554142 -0.87709725 0.21281865 -0.9209322 0.33001766 -0.35969004 -0.32953683 -0.96162933
-1.1088288 1.838099 0.5338667 -0.94811106 -0.965905 1.1746156 0.46099004 1.2318312

transformer.h.0.ln_1.weight f4 [64]
00000000: 9805 493f b21e 583f 0a66 4c3f d73c 693f
00000010: 7250 583f 7b68 5c3f 5bbd 723f 1ed5 673f
00000020: 4afb 543f 543a 653f 9de0 643f 9156 7c3f
00000030: 9e1d 7c3f 937d 593f 931c 573f b37a 5d3f
00000040: 4454 433f 01c4 6f3f 0341 6b3f dac0 533f
00000050: e1de 603f 919f 5c3f 3c6b 463f 6a4b 833f
00000060: b381 5b3f b62c 583f a9ab 4c3f db8e 6a3f
00000070: 82c3 693f 3a15 5c3f a410 663f dfc5 6e3f
00000080: b999 523f 8dbd 603f f3ab 803f 7d48 503f
00000090: 7a0c 733f bd6b 4d3f c6ae 733f 1d19 403f
000000a0: deca 5a3f 065e 353f 9f5f 6c3f b528 443f
000000b0: ccda 603f 5732 763f dd36 573f dcbd 693f
000000c0: 4ae8 623f 19ae 693f 4baa 6a3f d839 5e3f
000000d0: a43e 613f 7808 6a3f 7031 433f a7c5 6a3f
000000e0: aaf4 313f facf 553f a21c 623f 8e00 713f
000000f0: 0232 763f 70e1 443f d4e7 593f 0faf 573f
0.7852416 0.8442184 0.798432 0.9110846 0.8449775 0.86096925 0.94820184 0.90559566
0.83195937 0.89542127 0.8940523 0.9856959 0.9848269 0.84957236 0.84027976 0.8651535
0.76300454 0.93658453 0.91896075 0.82716143 0.87840086 0.8618098 0.77507377 1.025739
0.8574478 0.84443223 0.7994943 0.9162423 0.91313946 0.8596989 0.8986914 0.9327068
0.8226581 0.8778923 1.0052475 0.8136061 0.9494091 0.8024252 0.9518856 0.7503832
0.854658 0.70846593 0.92333406 0.76624614 0.8783386 0.9617056 0.8406809 0.9130533
0.88635695 0.91281277 0.91666096 0.8680701 0.87986207 0.9141917 0.7624731 0.91707844
0.6951395 0.8352047 0.8832494 0.9414147 0.96170056 0.7690649 0.85119367 0.84251493

transformer.h.0.ln_1.bias f4 [64]
00000000: 506e 57bc f71b 36bd 8bd3 de3c a3c9 7b3d
00000010: d0c9 363d c7a8 ddbc ec9c 143d 250c b5bc
00000020: 416c ee3c dfda 0f3d 8a2b 853e ab58 b63c
00000030: 4375 e93d e26f 98bd 9068 cc3c 06e2 96bd
00000040: d6e8 f1bc cdf2 06be 3f76 f03d 7096 a23c
00000050: 27c2 2ebe 0097 8b3d e60b b6bb 58d0 133d
00000060: 092e 5c3c 14e7 6cbd c9de 5abe e73c a33c
00000070: 38ec 73bc 7b16 b73d 66ba 8a3d 35ed 0fbc
00000080: 0052 11bd 1ebb 94bd f0fc 93bd a5fe 223e
00000090: 0deb 4e3d 5450 c6bd 41a1 91bd 536d fc3b
000000a0: 5e58 9d3c 1e74 3bbe d050 42bd 6f3a 3fbd
000000b0: fcd8 bc3d 8c1d a53d 8ee5 013e 2c53 8b3d
000000c0: e448 65bc 4995 023e f142 73bd f248 193d
000000d0: 4018 bb3d c233 e73d 205a 203e 487e 0a3d
000000e0: 97f7 883d 9726 4abd cfd1 d3bd 62e3 bbbc
000000f0: f019 b03d 2338 b53d 487e f7bd 6031 cfbd
-0.013148859 -0.044460263 0.02720048 0.061471593 0.044626057 -0.027058018 0.036282465 -0.022100518
0.029104354 0.03512084 0.2600978 0.022259077 0.11399319 -0.07443215 0.024952203 -0.07367329
-0.02952997 -0.13178559 0.11741304 0.019847125 -0.1706625 0.0681591 -0.0055556176 0.036087364
0.01343871 -0.05783756 -0.21374048 0.019926501 -0.014887862 0.08939835 0.06773834 -0.008784582
-0.035478592 -0.07262252 -0.072259784 0.15917452 0.05051713 -0.0968329 -0.07110835 0.007703462
0.019207176 -0.18306014 -0.04744035 -0.046686586 0.09221074 0.08062276 0.12685224 0.06802973
-0.013994429 0.1275226 -0.059390012 0.03742308 0.09135485 0.11289169 0.1565938 0.033811837
0.06687849 -0.04935321 -0.10342752 -0.022935573 0.08598697 0.08848598 -0.12084633 -0.101168394

transformer.h.0.attn.bias f4 [1, 1, 55, 55]
00000000: 0000 803f 0000 0000 0000 0000 0000 0000
00000010: 0000 0000 0000 0000 0000 0000 0000 0000
00000020: 0000 0000 0000 0000 0000 0000 0000 0000
00000030: 0000 0000 0000 0000 0000 0000 0000 0000
00000040: 0000 0000 0000 0000 0000 0000 0000 0000
00000050: 0000 0000 0000 0000 0000 0000 0000 0000
00000060: 0000 0000 0000 0000 0000 0000 0000 0000
00000070: 0000 0000 0000 0000 0000 0000 0000 0000
00000080: 0000 0000 0000 0000 0000 0000 0000 0000
00000090: 0000 0000 0000 0000 0000 0000 0000 0000
000000a0: 0000 0000 0000 0000 0000 0000 0000 0000
000000b0: 0000 0000 0000 0000 0000 0000 0000 0000
000000c0: 0000 0000 0000 0000 0000 0000 0000 0000
000000d0: 0000 0000 0000 0000 0000 0000 0000 803f
000000e0: 0000 803f 0000 0000 0000 0000 0000 0000
000000f0: 0000 0000 0000 0000 0000 0000 0000 0000
00000100: 0000 0000 0000 0000 0000 0000 0000 0000
00000110: 0000 0000 0000 0000 0000 0000 0000 0000
00000120: 0000 0000 0000 0000 0000 0000 0000 0000
00000130: 0000 0000 0000 0000 0000 0000 0000 0000
00000140: 0000 0000 0000 0000 0000 0000 0000 0000
00000150: 0000 0000 0000 0000 0000 0000 0000 0000
00000160: 0000 0000 0000 0000 0000 0000 0000 0000
00000170: 0000 0000 0000 0000 0000 0000 0000 0000
00000180: 0000 0000 0000 0000 0000 0000 0000 0000
00000190: 0000 0000 0000 0000 0000 0000 0000 0000
000001a0: 0000 0000 0000 0000 0000 0000 0000 0000
000001b0: 0000 0000 0000 0000 0000 803f 0000 803f
000001c0: 0000 803f 0000 0000 0000 0000 0000 0000
000001d0: 0000 0000 0000 0000 0000 0000 0000 0000
000001e0: 0000 0000 0000 0000 0000 0000 0000 0000
000001f0: 0000 0000 0000 0000 0000 0000 0000 0000
00000200: 0000 0000 0000 0000 0000 0000 0000 0000
00000210: 0000 0000 0000 0000 0000 0000 0000 0000
00000220: 0000 0000 0000 0000 0000 0000 0000 0000
00000230: 0000 0000 0000 0000 0000 0000 0000 0000
00000240: 0000 0000 0000 0000 0000 0000 0000 0000
00000250: 0000 0000 0000 0000 0000 0000 0000 0000
00000260: 0000 0000 0000 0000 0000 0000 0000 0000
00000270: 0000 0000 0000 0000 0000 0000 0000 0000
00000280: 0000 0000 0000 0000 0000 0000 0000 0000
00000290: 0000 0000 0000 803f 0000 803f 0000 803f
000002a0: 0000 803f 0000 0000 0000 0000 0000 0000
000002b0: 0000 0000 0000 0000 0000 0000 0000 0000
000002c0: 0000 0000 0000 0000 0000 0000 0000 0000
000002d0: 0000 0000 0000 0000 0000 0000 0000 0000
000002e0: 0000 0000 0000 0000 0000 0000 0000 0000
000002f0: 0000 0000 0000 0000 0000 0000 0000 0000
00000300: 0000 0000 0000 0000 0000 0000 0000 0000
00000310: 0000 0000 0000 0000 0000 0000 0000 0000
00000320: 0000 0000 0000 0000 0000 0000 0000 0000
00000330: 0000 0000 0000 0000 0000 0000 0000 0000
00000340: 0000 0000 0000 0000 0000 0000 0000 0000
00000350: 0000 0000 0000 0000 0000 0000 0000 0000
00000360: 0000 0000 0000 0000 0000 0000 0000 0000
00000370: 0000 803f 0000 803f 0000 803f 0000 803f
00000380: 0000 803f 0000 0000 0000 0000 0000 0000
00000390: 0000 0000 0000 0000 0000 0000 0000 0000
000003a0: 0000 0000 0000 0000 0000 0000 0000 0000
000003b0: 0000 0000 0000 0000 0000 0000 0000 0000
000003c0: 0000 0000 0000 0000 0000 0000 0000 0000
000003d0: 0000 0000 0000 0000 0000 0000 0000 0000
000003e0: 0000 0000 0000 0000 0000 0000 0000 0000
000003f0: 0000 0000 0000 0000 0000 0000 0000 0000
1.0 0.0 0.0 0.0 0.0 0.0 0.0 0.0
0.0 0.0 0.0 0.0 0.0 0.0 0.0 0.0
0.0 0.0 0.0 0.0 0.0 0.0 0.0 0.0
0.0 0.0 0.0 0.0 0.0 0.0 0.0 0.0
0.0 0.0 0.0 0.0 0.0 0.0 0.0 0.0
0.0 0.0 0.0 0.0 0.0 0.0 0.0 0.0
0.0 0.0 0.0 0.0 0.0 0.0 0.0 1.0
1.0 0.0 0.0 0.0 0.0 0.0 0.0 0.0
0.0 0.0 0.0 0.0 0.0 0.0 0.0 0.0
0.0 0.0 0.0 0.0 0.0 0.0 0.0 0.0
0.0 0.0 0.0 0.0 0.0 0.0 0.0 0.0
0.0 0.0 0.0 0.0 0.0 0.0 0.0 0.0
0.0 0.0 0.0 0.0 0.0 0.0 0.0 0.0
0.0 0.0 0.0 0.0 0.0 0.0 1.0 1.0
1.0 0.0 0.0 0.0 0.0 0.0 0.0 0.0
0.0 0.0 0.0 0.0 0.0 0.0 0.0 0.0
0.0 0.0 0.0 0.0 0.0 0.0 0.0 0.0
0.0 0.0 0.0 0.0 0.0 0.0 0.0 0.0
0.0 0.0 0.0 0.0 0.0 0.0 0.0 0.0
0.0 0.0 0.0 0.0 0.0 0.0 0.0 0.0
0.0 0.0 0.0 0.0 0.0 1.0 1.0 1.0
1.0 0.0 0.0 0.0 0.0 0.0 0.0 0.0
0.0 0.0 0.0 0.0 0.0 0.0 0.0 0.0
0.0 0.0 0.0 0.0 0.0 0.0 0.0 0.0
0.0 0.0 0.0 0.0 0.0 0.0 0.0 0.0
0.0 0.0 0.0 0.0 0.0 0.0 0.0 0.0
0.0 0.0 0.0 0.0 0.0 0.0 0.0 0.0
0.0 0.0 0.0 0.0 1.0 1.0 1.0 1.0
1.0 0.0 0.0 0.0 0.0 0.0 0.0 0.0
0.0 0.0 0.0 0.0 0.0 0.0 0.0 0.0
0.0 0.0 0.0 0.0 0.0 0.0 0.0 0.0
0.0 0.0 0.0 0.0 0.0 0.0 0.0 0.0

transformer.h.0.attn.c_attn.weight f4 [192, 64]
00000000: ea8a 3d3d b6b2 b7bd 09da 6cbe 21eb d1bd
00000010: 5fc8 22be 601f bb3d 59ed 1e3d 9bea 22be
00000020: 94a6 4f3e fd23 a5bd c4bb 9bbd e095 e3bd
00000030: 5828 1abe 7ad3 8d3e ca7e 423e 0bce 983d
00000040: ae54 acbd 8ceb 25bc 0374 22be 7e6e 77bd
00000050: 01fa 33be 08da b6bc 91cb 45bd fc17 1d3e
00000060: 84b5 2abe 48e8 83bd 0065 d6bd c341 0b3e
00000070: 8f7d b63d 7562 14be 0ec0 413e 42e1 6e3e
00000080: ac5f 2cbe 7daf 5ebc 2970 5c3c 2d61 59bd
00000090: 1b19 b9bc 9d8c a43d fcb4 6fbd 3cf6 613d
000000a0: e78b 903d 35b4 c2bd 915e cf3c 14cc d73d
000000b0: 3944 2a3e 94f7 62be f605 463e 7297 7ebe
000000c0: e5fe 543c dc42 80bd 9476 2a3e f066 0ebd
000000d0: 56b6 f13d 9d49 7dbd bb63 d03d 4d33 2f3d
000000e0: 4d6c e1bc 6c7f cc3d 9e87 11bd 40a6 adbd
000000f0: 27a2 183e 8d0b 21bd 20da fbbd dfa1 1a3e
00000100: 1ae1 95bc 9193 88bd 18df a13d 4e1e b53c
00000110: 30d0 67bd c61a acbd 4c41 3f3e c144 debd
00000120: 31ef 873d 2eef 063e 37d3 8d3c 17be 823c
00000130: b607 e23d 40d0 72be 2ffa 11be 8336 12be
00000140: 6ed6 ef3b 4e47 d73d 9d1f 323d 73cb a4bc
00000150: cd11 66bd 8cd6 48be 10ae a0bc d619 4ebd
00000160: dc82 82bd 70f7 e43d 598c 073d 1bb7 87bd
00000170: 4946 a8bc da7c 113e 6a2b bb3d 6bcd c8bd
00000180: 7e8b 45be dd8e 09bd 247f 37be 6c46 2e3d
00000190: e04e 133e bcc6 3e3d 632f 13bd 0fb4 5d3e
000001a0: 2458 df3d 4740 46be b84e 383e e10a 443d
000001b0: ba25 06be 79f6 0f3e 96a0 3ebe 0fe1 cbbd
000001c0: 7b0b b73c 9aaf 3d3d e610 50be e9d8 edbd
000001d0: 42ce 9b3d 7a1a 1b3e b4df 943d c774 b23d
000001e0: a365 463d 846f d03d c695 763d ca47 e43d
000001f0: a17b 343e b495 5d3e 8e33 b6bd 020b 2bbe
00000200: f0aa 8cbc 3604 00be 4e02 313d e10c fcbd
00000210: 6416 a4be 003c e3bd afc2 2dbe 600c 993d
00000220: 52af b4bd 95ef cdbd 8e5c 3cbe cab9 313b
00000230: b9d9 b23c 6116 833e d898 563e f16c 3c3e
00000240: 06b0 623e feea 613c d844 2cbd b0c7 d13c
00000250: ce2d f63d 9e4f dc3c 2f74 b8be 72d7 39bc
00000260: dd43 503d 7a41 22be a3f4 223e 0fd8 1c3d
00000270: e29a 0e3e 94e5 b03d ee88 63be 0e38 a53c
00000280: bda7 763d ec7a 3c3e 0468 963d 5365 a6bd
00000290: afa6 07bd 145a 683d c544 f53d 1ca7 57bd
000002a0: 900e 48bd c88c bd3d c609 f0bd e1e5 03be
000002b0: 2c7c c13d 9810 53be d4f5 2ebd 8a4f 5b3e
000002c0: ce45 183e 05ff e93d 776f 97bd 3dc4 5dbd
000002d0: 1cfa 3bbe 54a9 f8bd cc28 9c3d 458a 3ebe
000002e0: bfc9 303c fbad 823d 0c71 16bd 23ff 93be
000002f0: 9e39 bbbd de80 113e 8c5f c7bd 56fd 933e
00000300: 79cb cc3d 9092 873e 219c acbc a56d 88be
00000310: f2b9 363d ac26 463c 534d 8d3e 9ffb b4bd
00000320: 76a5 9ebd 44a6 41be f1ce 8d3d 0c24 9fbd
00000330: fafd 753c 14eb 4a3d f6cf 7a3d 03df b73d
00000340: 1aa8 963b 3f5b a23d 053e ec3d d284 d13c
00000350: ee54 1c3e e76e 1a3d d8d8 9abd 4430 613e
00000360: 29dd 00be 7ea7 4a3c b305 23bd 3bef 213e
00000370: cecb 4f3e 5e95 2c3d 5acf b4bd 2b7a 453d
00000380: b51b 923c 4734 a53c ef1d 36bd 7af9 b2ba
00000390: bc33 bf3c 6858 0abe f4a5 f33d 6a24 d03d
000003a0: 1da6 dd3d 3dad 89bc 724a 23bd e84a a33e
000003b0: a1e4 49bd 5083 39bc f4c2 833d 0679 9bbc
000003c0: b83e 993d fd68 21be 1ca5 d5bc 056b 1b3c
000003d0: c741 0cbe 746f 09be 2d0b 18be 6e27 68bd
000003e0: e4a9 19bd d040 ef3a c312 9b3d 5402 cebd
000003f0: 1e56 b83c 653e b33c 64db d3bc 8589 c8bd
0.046275057 -0.08969633 -0.23130049 -0.102499254 -0.15896748 0.09136844 0.03880057 -0.15909807
0.20278388 -0.08063505 -0.07604173 -0.11112571 -0.15054452 0.27700406 0.18993679 0.074611746
-0.08414589 -0.0101269595 -0.15864567 -0.060408108 -0.17575838 -0.022320762 -0.04828984 0.1534118
-0.16670805 -0.064407885 -0.10468483 0.13599305 0.08910667 -0.14490683 0.1892092 0.23328117
-0.16833371 -0.013591644 0.013454475 -0.05307119 -0.022594979 0.08034632 -0.05852221 0.055166468
0.07057934 -0.09507028 0.025313647 0.10536972 0.16627587 -0.22164756 0.19338211 -0.2486246
0.013000225 -0.062627524 0.16646796 -0.034766138 0.11802356 -0.06183778 0.10175272 0.042773534
-0.027517462 0.09985241 -0.035529725 -0.08478975 0.14905606 -0.039317656 -0.122974634 0.15100811
-0.018295813 -0.06668771 0.0790388 0.022109177 -0.056595027 -0.08403544 0.18677253 -0.108529575
0.06637419 0.13177177 0.01731263 0.015959783 0.11036627 -0.23712254 -0.14255594 -0.14278607
0.007319263 0.10511647 0.04348718 -0.020116543 -0.05616932 -0.19613093 -0.01961425 -0.050317608
-0.06372616 0.111800075 0.03309283 -0.066267215 -0.020541327 0.14207783 0.0913914 -0.09804805
-0.19291493 -0.03358351 -0.17919594 0.04254763 0.14385557 0.046576247 -0.035933863 0.21650718
0.10905483 -0.19360457 0.17998779 0.047861937 -0.13100329 0.14058866 -0.18615946 -0.09955036
0.022344342 0.046310045 -0.20318946 -0.11613638 0.076077 0.15146819 0.072692305 0.0871368
0.048436772 0.1017752 0.06020143 0.11146505 0.17625286 0.21639138 -0.08896552 -0.16703418
-0.017171353 -0.12501606 0.04321509 -0.12307144 -0.32048333 -0.110954285 -0.16968797 0.074730635
-0.08822502 -0.10055462 -0.18394682 0.0027118796 0.021832334 0.2560301 0.20956743 0.18400933
0.2213746 0.013788937 -0.042057842 0.025607914 0.12020455 0.026893433 -0.3602614 -0.01134287
0.05084597 -0.1584529 0.15913634 0.038291987 0.1392627 0.086375386 -0.22220203 0.02016833
0.06021856 0.18406266 0.07344058 -0.08124795 -0.033117946 0.05672653 0.11976007 -0.052649602
-0.048842013 0.092553675 -0.11720614 -0.1288066 0.09447512 -0.20611799 -0.04271491 0.2141706
0.14870378 0.11425594 -0.07394307 -0.054142226 -0.18357128 -0.12141672 0.07624969 -0.18607433
0.0107902875 0.063808404 -0.036728904 -0.2890559 -0.09141849 0.14209315 -0.09735021 0.28904217
0.09999747 0.26479006 -0.021070542 -0.26646152 0.044610925 0.012094181 0.27598056 -0.088370554
-0.07746403 -0.18911082 0.069242366 -0.07770547 0.015014166 0.049540594 0.061233483 0.08978083
0.004597676 0.0792756 0.11535267 0.025576029 0.15266773 0.03770342 -0.07560891 0.21991068
-0.12584366 0.012369035 -0.039800357 0.15813915 0.20292589 0.042134635 -0.08828612 0.04821221
0.017835477 0.02016653 -0.04446214 -0.0013654672 0.023340099 -0.13510287 0.118968874 0.101631954
0.10822699 -0.01680624 -0.03986592 0.31893086 -0.049290303 -0.011322811 0.06433669 -0.018978607
0.07482666 -0.15762706 -0.026079707 0.009485965 -0.13696967 -0.13421422 -0.14848013 -0.056678228
-0.037515536 0.0018253569 0.07571938 -0.10059038 0.022502001 0.021880338 -0.02586145 -0.09791855

transformer.h.0.attn.c_attn.bias f4 [192]
00000000: 7964 fbbd c17d f13d 565f 7dbe 2219 c23e
00000010: 1f6e 85be e326 b2be d536 9dbe e198 00be
00000020: 32a5 113e 1f6b 423e 5f01 80be 5f1b f8bd
00000030: 79be 26be 7d07 d53e 460e abbd daf0 8f3d
00000040: 6a96 e4bd 2c65 1ebe e3f6 9b3e 4f5e 973e
00000050: e904 8ebd 8758 8e3e fc58 bfbd 0738 883d
00000060: bf61 44bd 1a80 eb3d c0de 5ebd 2ad7 acbc
00000070: 7ea2 e13d 3956 acbe f91a 34be 15f0 323e
00000080: 76e3 0cbe cdf5 093e ea84 503b c9d1 1fbe
00000090: 63b3 7ebe 3dac 83be f47b 1abe 9319 743e
000000a0: ee71 453e 7a61 883d 782f 4dbe c3c6 a1bd
000000b0: edcd 833c ec9d 063d e964 793e 9084 883e
000000c0: 83e8 b6bd 81da 433d 6580 b4bd 2e7d 0fbe
000000d0: 23ce 18bb 9a5e 9a3d 7f88 173e 5cac fabd
000000e0: 786b dabd 82b6 0dbe 79de 70be c334 37be
000000f0: ead4 4c3e b402 46be d7f3 613e 7bb2 983b
00000100: 61a1 b83d e82e 0c3c 530d a53d 0df0 903d
00000110: 3939 4abd 9e8e d5bb c657 81bd 64f9 833d
00000120: 85ff 823d 39fe 8f3b bc54 c3bd ec4a aabd
00000130: 2971 9b3d 8f93 6fbc 7afe 44bd 9fdd 02bd
00000140: b850 8fbd 8af0 a5bc 4c66 8abd 423b 8b3d
00000150: 95dd 893d cba4 313d 0210 cf3b 6fd4 9c3d
00000160: dd15 9a3d f091 73bc fc8a 633d 06db efbc
00000170: 8d3d 4cba 49fa 82bd 280a 80bd ea4f ad3d
00000180: 1ab8 a8bc 3cf3 003d 6810 dfbc bbc6 883d
00000190: 1b09 973c 5ae2 00bc 01a0 493d d075 82bd
000001a0: c7fb 9dbc eaaa b13d 94b1 e4bc 3038 9abd
000001b0: 5834 ffbc 0e35 5b3d 7690 1abc de30 9e3d
000001c0: ba16 fb3c 37dc b6bd 9cf3 a53c 748e 2fbd
000001d0: a7e6 b03c 119d aabd 5d62 823d 5c88 be3d
000001e0: 8b7b 183d 14be b63c 6589 3a3d 9963 bf3d
000001f0: 8821 f73c a27f 563d 97cc ad3c 5754 b83c
00000200: 08f3 55bc 4876 e03c a3e8 6a3d 4207 873d
00000210: 0ebc b93c 099a 153d 6954 8fbc b785 ca3c
00000220: 7597 1dbd f270 9a3d e3a5 06bd 5e4a e73d
00000230: 455e 033d ada6 093e 0aeb 6bbd 81f4 9f3c
00000240: 35c3 b5bb b6af d83b 3b83 ab3d 22d9 463d
00000250: b7b4 5d3c bed2 e23b 0dac 5dbd 77a0 2abd
00000260: 4389 903c 7a3d bcbc a078 96bc 75fc 80bd
00000270: 174c 8d3d f2a8 27bd 3b68 75bd 6071 903c
00000280: 550a 60bc c056 b93d acc4 8cbb 3168 92bd
00000290: 6485 a13b 2eb9 a9bd a0a0 053e c31f 97bd
000002a0: 1261 b83d 2c32 263c e9c3 a13d de16 833c
000002b0: bc02 05be 414e f03c b570 0abd e1c0 24bc
000002c0: 3f9a f83c 7773 673d 448e 323d 905a 8e3d
000002d0: 7745 93bd f774 4abd bb42 dc3d eef8 9dbd
000002e0: 58d0 98bd 9611 753c 61f2 85bd c0e9 cf3c
000002f0: 3c25 b03c 5633 843d 92ce 823c 45fb 8cba
-0.12275023 0.11791564 -0.24743399 0.379098 -0.26060578 -0.34795293 -0.30705896 -0.12558319
0.14223173 0.18986176 -0.25001046 -0.121145956 -0.16283597 0.41607276 -0.08352332 0.07028361
-0.11161502 -0.15468282 0.30461797 0.2956414 -0.0693453 0.27801916 -0.09343144 0.06651311
-0.04794478 0.11499043 -0.05441165 -0.021098692 0.11017321 -0.33659533 -0.17588414 0.17474397
-0.13758644 0.13472672 0.0031817504 -0.1560737 -0.24873118 -0.25717345 -0.15086347 0.23837881
0.19281742 0.06659217 -0.20037639 -0.07899239 0.016089404 0.03286545 0.243549 0.26663637
-0.08931067 0.047815803 -0.08813552 -0.14012596 -0.0023316226 0.07537575 0.14798163 -0.12239906
-0.10665029 -0.13839152 -0.23522367 -0.17891221 0.20003095 -0.19336969 0.22065674 0.0046599484
0.090151556 0.008556105 0.08059182 0.07077036 -0.049370978 -0.0065172454 -0.063155696 0.06444052
0.06396393 0.0043943194 -0.09537646 -0.083150715 0.07589943 -0.014622583 -0.04809425 -0.031949636
-0.06997818 -0.0202563 -0.06757793 0.06798412 0.067317165 0.04337005 0.006319047 0.07657706
0.07523701 -0.014866337 0.055552468 -0.029279243 -0.0007791154 -0.06395394 -0.06251937 0.08462508
-0.020595599 0.031481966 -0.027229503 0.0667853 0.018436959 -0.007866466 0.049224857 -0.06370127
-0.019285096 0.086751774 -0.027916707 -0.07530248 -0.03115289 0.053517394 -0.009433856 0.077241644
0.030650485 -0.089287214 0.020257764 -0.042860463 0.021594359 -0.08330739 0.063664176 0.09303352
0.037227195 0.022307433 0.045541186 0.093451686 0.030167356 0.052367814 0.02121572 0.022501154
-0.013058431 0.02740015 0.057350766 0.06593181 0.02267268 0.036523852 -0.017496305 0.024721963
-0.03847452 0.07541074 -0.032873046 0.11293481 0.032072324 0.13442488 -0.057597198 0.019525768
-0.005546952 0.0066127433 0.083746396 0.048546918 0.013531855 0.006922095 -0.05411916 -0.041656937
0.017643576 -0.022978533 -0.018368065 -0.06298152 0.068992786 -0.040932603 -0.059913855 0.017632186
-0.013674338 0.090497494 -0.004295906 -0.07148779 0.0049292315 -0.08287273 0.13049555 -0.07379105
0.0900289 0.010143798 0.07898695 0.016002115 -0.12989324 0.02933419 -0.033798892 -0.010055752
0.030346988 0.0565066 0.043592706 0.06950867 -0.07190984 -0.049427953 0.10754915 -0.07713495
-0.074616134 0.014957806 -0.06540371 0.025380015 0.02150213 0.06455104 0.015967641 -0.0010756036

transformer.h.0.attn.c_proj.weight f4 [64, 64]
00000000: 3ccf b83d e94f bb3d dfba 24be 0083 8cbb
00000010: 43ec 18be 8272 59bd e371 293c aed2 14bd
00000020: 668e f13d 1de2 35be 74dc d03b 0dff 6a3d
00000030: cf6e 9fbd 7098 9a3d f263 2a3b 41e8 863d
00000040: 7f6c 51bd 7090 c9bd a616 f73d 6dd9 aabd
00000050: 56ce c6bd 6bdd 17bd 3507 edbd 8508 9dbd
00000060: 0280 04bc 0728 13bd 3f2f c0bd 3b1a c1bd
00000070: 12de 7939 09dd 7f3e 5145 d1bd b0a3 8dbd
00000080: 363c 913d 5dbe 2fbe 398b f2bd b12c c1bd
00000090: 7455 20be 5d1b 02bd 138c b5bb c628 943c
000000a0: 547d f23c c362 88bd eaff aa3d d7f5 1e3d
000000b0: 4646 0ebe 4328 83bd b19c 883c 360c eabd
000000c0: c8d1 73bd 275d f1bd f016 103d 9705 3a3e
000000d0: 0ea9 09bd 792d e63d 4552 013e 26c3 edbd
000000e0: 3583 693d 7b99 95be 55a5 55be 6c78 863c
000000f0: 6ccb ec3d 66dd f0bc de61 b4bd 699b 0cbe
00000100: b6b1 edbd bd06 e43a bca8 523e af17 733b
00000110: 0707 92bb 5ad3 12bd 872d 53bd 9b51 563d
00000120: ed63 b6bb 0a46 c8bd 3b27 7ebc 0bec a4bc
00000130: 52ab 52bd 55ab 153d 990c 4a3e 4dce 513d
00000140: ca3c 57bd 998f 3c3d 2a27 cc3b debf e43c
00000150: fd0b fdbd ad8f 863d 553a dfbd 0069 9f3d
00000160: 767c 33be 69c3 a6bc 3bc9 3fbc 4c06 523d
00000170: c657 213e 4bfd 0ebd 4f81 2bbe 0e73 64bd
00000180: 88da 643d 271b e53d b3b1 23be 14a6 183d
00000190: 3393 3abc 7d14 99bd f864 003d 61b4 b23d
000001a0: 97de 9ebd b579 3d3d 6ecc b4bd fa8d c23d
000001b0: 7e2b 04bd bc72 22bd df32 103d a146 c03d
000001c0: a240 ee3d 679a 883c a620 a1bb 6d26 ec3d
000001d0: d0de a1bd d7fe ee3d d3ab b0bc bd65 553c
000001e0: 2f41 6d3e 08d3 e93c 97d0 0dbd a00f 0a3e
000001f0: 9303 163e d0eb 8f3e 6dbd 203d 3b84 09be
00000200: 6242 89b9 03ed c93d 305f 1f3e 14af f1bd
00000210: 21fe 423e f942 50be ee61 d23d f087 49be
00000220: 737a 563d 0439 e5bd a54d e33b af91 3cbd
00000230: 2236 5a3d 2fbc 4a3e 9f42 fabd bebb cf3c
00000240: 7b90 4d3d a7c1 75be c421 5cbc cbef 42bd
00000250: 2488 093d d2b6 dbbc 0d89 ae3d 1e71 96bd
00000260: 747d 4fbe f8bf 19be 9fa6 743c 5c18 a1bd
00000270: d576 b4bd 3ba0 08be 8276 f03d 9ff7 29be
00000280: 4bdb 83be 4dc0 1b3e 29d6 953c 3952 04bd
00000290: 8fab e3bd a730 90be 993d 1a3e e57f 643e
000002a0: 819f 71bd 3d41 a9bd 42bc 973c 5f8d 5c3d
000002b0: 5a9e a63d e9c5 913e 6a95 44be 34be 3bbc
000002c0: 99fd 873c 384e 87bc 9af7 8dbd 1c0f 243e
000002d0: d4e6 06bd b5bf 343d 60de 153e b526 1ebd
000002e0: 86a6 a6bd 6974 0e3e 747a 32bd 1f3b 823d
000002f0: 24d8 823d 4d84 0fba 48db 0d3e e4b8 223e
00000300: 8902 3c3d 2476 b7bd 76d3 fabc 6cd3 483d
00000310: 81af fb3c ee53 6cbe 6b6e 563d 7cef d83c
00000320: 1860 3b3d a171 d63d b16d fe3d db19 1a3e
00000330: e925 ecbd 99df 653d caf8 7bbd fc1f 893d
00000340: 1757 053d 7624 763d 4e7d 053e 0c09 59bd
00000350: 7032 39bb d930 593e d2a7 523d b2b7 373e
00000360: a687 c23d a95a 4a3c 5c80 18bd bcc0 8e3d
00000370: 768a bfbd f46e 97bd 513e 07be 6d0f 38bc
00000380: 961b f43d 85fb 1a3e 6874 9a3d 7c47 46bd
00000390: b32e 12be 67fa 0d3e a201 a53d c557 6bbd
000003a0: 3c0f 4e3e 97a4 cabc 301a fd3b afab ffbc
000003b0: 9c8a 37be 472f a3bd f2dd eb3d 08c2 a7bc
000003c0: 3bfb 2f3d 69d3 ae3d 669f 313e 9287 8ebd
000003d0: 1942 90bd c927 063d 80ba a03d e09a acbb
000003e0: 6494 313e c957 f6bd 132d 81bd da5d b6bc
000003f0: 740e 8cbc 3a59 b8bd 9c08 743c 2bee debc
0.09023902 0.09146101 -0.1608691 -0.0042880774 -0.14933877 -0.05308772 0.010342094 -0.036333732
0.117947385 -0.17762037 0.0063739363 0.05737214 -0.07784807 0.075486064 0.0025999513 0.06587268
-0.05112886 -0.098420024 0.12064867 -0.08342252 -0.09707324 -0.037076395 -0.1157364 -0.076676406
-0.00808716 -0.035926845 -0.093840115 -0.09428831 0.00023829218 0.24986662 -0.10218299 -0.069159865
0.070915624 -0.17162462 -0.11842961 -0.09432352 -0.15657598 -0.031764377 -0.00554038 0.018085849
0.029600777 -0.06659462 0.08349593 0.03880867 -0.13893995 -0.06404164 0.016676279 -0.1142811
-0.059526235 -0.117853455 0.035178125 0.18166195 -0.03360849 0.11239142 0.1262904 -0.11609487
0.057009894 -0.2921866 -0.2086385 0.016414843 0.11562237 -0.029402446 -0.08807729 -0.1373116
-0.11606161 0.0017397028 0.2057218 0.0037092974 -0.004456404 -0.03584609 -0.05155709 0.05232392
-0.0055661113 -0.09778984 -0.015512283 -0.020132085 -0.051432915 0.036540348 0.19731368 0.051222134
-0.052548207 0.046035383 0.0062302547 0.02792352 -0.12355802 0.06570373 -0.10899798 0.07783699
-0.17527947 -0.02035685 -0.011705692 0.051275536 0.15756139 -0.034909528 -0.16748546 -0.055773787
0.05587247 0.111868195 -0.15985756 0.03726776 -0.011387634 -0.07474611 0.03134629 0.08725811
-0.077572994 0.046258647 -0.08828054 0.09499736 -0.03226804 -0.0396602 0.035204764 0.093884714
0.116334215 0.016675187 -0.004917222 0.11530767 -0.07903826 0.116697006 -0.021566307 0.013024745
0.23169397 0.02854301 -0.034622755 0.13482523 0.14649801 0.28109598 0.03924315 -0.13429348
-0.00026180135 0.098596595 0.15563655 -0.118009716 0.19042255 -0.20338048 0.10272585 -0.19680762
0.05236287 -0.111925155 0.006936746 -0.046037372 0.05327428 0.19798349 -0.12219738 0.025358077
0.050186615 -0.23999654 -0.013435785 -0.047591966 0.0335771 -0.026820574 0.08522234 -0.07345794
-0.202627 -0.15014637 0.014932304 -0.07865974 -0.08811728 -0.13342373 0.117413536 -0.16598366
-0.25753245 0.15210076 0.018290596 -0.032304976 -0.111167066 -0.2816212 0.1506256 0.22314413
-0.058990005 -0.08264396 0.018522386 0.05384576 0.08135672 0.28471306 -0.19197622 -0.011458922
0.016600417 -0.01651679 -0.06931992 0.16021389 -0.03293498 0.04412814 0.1463561 -0.038611133
-0.081372306 0.13911594 -0.04357381 0.06358933 0.06388882 -0.00054747314 0.1385318 0.15890843
0.045900855 -0.089580804 -0.03061841 0.049029753 0.030723335 -0.23078892 0.052351397 0.026481383
0.04574594 0.10470892 0.12423266 0.15048926 -0.11530668 0.056121442 -0.06151656 0.06695554
0.03255376 0.060093366 0.13036081 -0.052987143 -0.0028258823 0.2121004 0.051429577 0.17941168
0.09498529 0.012350717 -0.037231788 0.06970355 -0.09352581 -0.073942095 -0.13207366 -0.011234147
0.11919324 0.1513501 0.07541734 -0.048408017 -0.14275627 0.13865052 0.08056952 -0.05745675
0.20122999 -0.024736686 0.007724069 -0.031209795 -0.17923969 -0.07968002 0.11516942 -0.020478263
0.0429642 0.08536417 0.17345962 -0.06959452 -0.07043857 0.032752786 0.07848072 -0.005267486
0.17341763 -0.120284624 -0.06307425 -0.022261549 -0.017096736 -0.090013936 0.014894631 -0.027213177

transformer.h.0.attn.c_proj.bias f4 [64]
00000000: a658 d93d 4013 5eba f954 333d e9e2 e1bb
00000010: f68b ba3d d4a4 a83c 203a 473d 70b0 08bd
00000020: 3690 983d 82b1 a83d c89c c5bd b7e0 043d
00000030: bfc8 823d 9d5a 1bbd 1049 073e 3487 3bbb
00000040: dc07 b73c eab2 d63d 75f6 fd3d 3e1c 3bbe
00000050: 63c6 a5bd 77b4 dabc 15d6 433e a4c9 903c
00000060: ed9c 3f3e 016d 3f3d b24c a9bd a37b c0bd
00000070: 1ddf b3bd 6448 0d3e d4b6 b73b c68d 32bc
00000080: 3eb9 033d 762f e53d 9c08 c83b 7f0a 393d
00000090: 18f1 f53d f2f0 17be 3650 17be 10a4 02be
000000a0: 4d0a 03bd 44cc 6abc 9687 0b3d a440 23be
000000b0: c321 bb3d 39a2 bebc a6a6 c6bc 8b82 5d3d
000000c0: 65c7 03be 2046 70bd 2ddb 0abe 50fc 5abd
000000d0: eecd 9fbd 891d 48be 178c e63c 5997 88bc
000000e0: 93ce 263e f620 41bd f511 9fbb 9eed 33bd
000000f0: 1484 613d 1a8c 02bc 2bec 0fbd 6594 d13d
0.106126115 -0.00084714964 0.043782208 -0.006893505 0.09108727 0.020586409 0.048639417 -0.03337139
0.07449381 0.08236982 -0.09649044 0.032440867 0.063859455 -0.037928212 0.13211465 -0.0028614523
0.022342615 0.10483344 0.124005236 -0.18272492 -0.0809448 -0.02669738 0.19124635 0.017674275
0.18712206 0.046734814 -0.082665816 -0.09398582 -0.0878279 0.13797146 0.0056065116 -0.010898059
0.032159083 0.11190693 0.006104542 0.045176025 0.120088756 -0.14838007 -0.14776692 -0.12757897
-0.031992245 -0.014330927 0.03406485 -0.15942627 0.09137299 -0.023270713 -0.024249386 0.054079574
-0.12869032 -0.058660626 -0.13560171 -0.05346328 -0.0780295 -0.19542517 0.028142972 -0.01667373
0.1628974 -0.047150575 -0.0048544356 -0.04392778 0.0550576 -0.007967973 -0.035137337 0.10233382

transformer.h.0.ln_2.weight f4 [64]
00000000: d3e4 4d3f 9f17 673f 73da 3d3f dd9b 483f
00000010: 0265 3c3f 041c 423f adae 2c3f b425 4a3f
00000020: 2599 313f 45e7 513f 59fb 563f e70d 433f
00000030: 366b 4e3f f550 413f 64de 523f fa18 4d3f
00000040: 1cb7 383f d5b3 463f 025b 3e3f 2714 5d3f
00000050: 6f6e 533f 3fb5 493f fbf5 543f f034 343f
00000060: 578a 433f 6bec 443f aecd 4a3f f1cc 363f
00000070: b5d6 493f dbd3 513f 00e2 4a3f bb53 3f3f
00000080: 7c7e 413f 8d66 4b3f bf3b 4e3f 9503 353f
00000090: 1316 6a3f cab4 4b3f 1f91 403f 60d5 313f
000000a0: 7959 2f3f e72f 363f 7403 463f ebc4 473f
000000b0: 08ef 553f 6c9c 543f b902 3f3f c3dc 433f
000000c0: bbf4 483f eb7e 473f d1de 513f 45c7 2f3f
000000d0: 1523 473f adfb 5c3f 735e 323f bf30 3c3f
000000e0: d94e 3a3f 2c5b 333f 8dc0 503f d054 5e3f
000000f0: edb3 593f 0882 4e3f 00ea 543f 52f1 433f
0.80427283 0.9027042 0.7416145 0.7836283 0.73591626 0.75824 0.67454034 0.7896378
0.69374305 0.81993514 0.83977276 0.7619309 0.8063234 0.75514156 0.8237059 0.80116236
0.721544 0.7761815 0.74357617 0.86358875 0.82590383 0.78792185 0.83187836 0.70393276
0.76382965 0.76923245 0.7922009 0.71406466 0.7884324 0.8196389 0.792511 0.7473714
0.75583625 0.79453355 0.80559915 0.7070859 0.9143993 0.7957274 0.7522144 0.6946621
0.684959 0.71166843 0.7734902 0.7803485 0.8356786 0.8305118 0.7461353 0.7650873
0.7849843 0.77928036 0.81980616 0.68663436 0.77787906 0.86321527 0.6967537 0.7351188
0.7277656 0.7006099 0.8154381 0.86848164 0.8504017 0.8066716 0.83169556 0.765401

transformer.h.0.ln_2.bias f4 [64]
00000000: e69d 423e 7eb6 0cbd a15d a1bc 965b 35be
00000010: e15e 023e 720e f9bd 5c63 fe3d be27 b0bd
00000020: a99f 963c dedb ccbc dd6a 81be 9a3d 393e
00000030: e18d 44be 8a2d 28bb 6b9f 113e 38e0 b1bc
00000040: b79f 80bd 5bb0 603e 499c 9c3d 9943 2bbe
00000050: 7356 063e 56f6 103d 48f4 913d afb6 863e
00000060: 9479 203e 4913 b23d 0767 cc3d 4603 a1be
00000070: 0234 cdbd 0598 a03d 0de4 94be 442d 313d
00000080: e416 c43e b7be f63d 8ec4 8abe db17 90be
00000090: d73a 26ba 6bc9 873d ebf5 45be 4e2e a2bd
000000a0: bc6c 39ba b309 0f3e 2615 173e 57b9 17be
000000b0: 37b6 523d f5ba 9dbd b8e9 adbd 6c54 8f3e
000000c0: 799d 8e3d 8597 2cbe f846 5bbe 86b9 55be
000000d0: 60fa 40be be5b bdbe 9b63 47be 6cfa 0bbe
000000e0: 9d1f 1f3e 26c7 073e dc28 3a3e ef74 633e
000000f0: 058a 9fbe 8a93 abbd cff0 9d3e 77be 043c
0.19005546 -0.034353726 -0.019697966 -0.17710719 0.12731506 -0.12160958 0.12421295 -0.0860133
0.018386679 -0.025007185 -0.25276843 0.18089905 -0.19194748 -0.002566191 0.1422097 -0.021713361
-0.06280463 0.21942274 0.076469965 -0.16725005 0.13118915 0.035391174 0.07126671 0.26311252
0.15671378 0.086950846 0.099805884 -0.3144781 -0.10019685 0.078414954 -0.2908024 0.04325606
0.38298714 0.12048095 -0.27103084 -0.281432 -0.0006341165 0.06630214 -0.19332092 -0.07918988
-0.00070733926 0.13968544 0.14754161 -0.14816795 0.051443305 -0.07701675 -0.08491844 0.27994096
0.06963629 -0.16854675 -0.21413791 -0.20871553 -0.1884551 -0.36984056 -0.1947159 -0.13669747
0.15539403 0.13259563 0.18179649 0.22212575 -0.31159988 -0.0837775 0.30847785 0.008102051

transformer.h.0.mlp.c_fc.weight f4 [256, 64]
00000000: bd22 5f3e e2a6 433e 8cc5 efbd 532a c93c
00000010: dd58 4abe e8cf 76bd deae 9cbd 468b 233d
00000020: ba1e f439 6451 afbd f980 823d c469 b1bc
00000030: 19c0 39bd 24b8 133d cd8b e93d 7dbe d43d
00000040: bb84 be3d c7ca 373b 35b5 0a3c 092b 353c
00000050: 46d6 b83d a78d c1bc 8345 713b 5324 30be
00000060: 41d5 06be 66d8 9b3d d34a 293e e8e8 1c3e
00000070: 0ce7 843d 86c8 45be fb24 60be 7b6c 1b3d
00000080: 4006 ddbd c69e 98bd a962 4a3e 0040 c23c
00000090: dc50 333d cc5b 19bd e5a7 0bbd e136 193e
000000a0: d5f6 9c3d ad7e bb3c ed1f a3bd e0a3 6a3c
000000b0: e92e 37be 2911 2fbe 6681 afbd 9767 2b3d
000000c0: c5d5 2f3d 300d a5bd 29c4 72bc f72a d83d
000000d0: 8826 17bd 8ca8 e93d 3363 743d 9559 9abc
000000e0: c2f6 b0bd e011 be3c 6812 a2bd 1c9c 38be
000000f0: 6d37 8e3d 19fd 82bc 2a0b 89bc c026 1f3e
00000100: d2c0 063d 9f10 e8bd 1547 3abe 389d dcbd
00000110: f6d6 a9bd e43d 593d 3c2f b7bd a18d 5a3e
00000120: aa3f b13d faec 0abe e748 363e c0e3 54bb
00000130: 3e1c aabd a031 1b3d c212 9cbd 6ab8 4bbe
00000140: 6e02 5a3e 8ff4 2fbd 9e9d ba3d a54c 9fbc
00000150: caed edbb 5d39 bdbd 5671 d6bd d80d ebbd
00000160: 4cb8 86be 71c4 1d3e b886 723c c18c c5bd
00000170: 15a0 05be 9730 ff3d 044e 2cbd 792f d93c
00000180: ad7d f4bb 9745 a8bd 2da7 7b3d cd74 7e3d
00000190: 5702 fd3b ff1b a1bd 10bb a93d 463b 9e3d
000001a0: 3574 303e db31 bd3b f10e 23be 7e18 903d
000001b0: c9b5 263e 583c b6bd d9ee 2c3e 433c cabd
000001c0: 1076 21be 3250 f4ba 7a1f 0b3d c269 ec3d
000001d0: 4a31 103c f5df 083e 89b1 96bd 31a8 2ebe
000001e0: 3f59 b0bd accf dfbd 6da2 9dbd 30ee 423d
000001f0: d581 ae3d bfbf cf3d dd80 2c3c d232 2e3b
00000200: 889c c83c 0e4b c0be 316a c1bd 31bc 0a3e
00000210: 9b37 4cbc e3ac d1bc a736 3a3d a116 8f3d
00000220: 3bb1 83bc 8234 013e 008b 253e 1638 15bb
00000230: 9c4c 6d3e 394b d03d 2042 df3c 4344 c13b
00000240: e031 d73d dc2b d43d 49e0 be3d 7633 253d
00000250: ece9 35be 3da9 4c3e fdb5 86bb 7bb7 5d3c
00000260: f618 04be 0ca9 2dbe 29da 52be 7db8 f3bd
00000270: e4ee 243e 168b 2dbe 8934 ebbc 6481 f93d
00000280: bf6b 6abd 8e0b 043c d58f 04be bd85 f3bd
00000290: 333c 643e e5e6 94bd df6b febd 9ab6 31bd
000002a0: 9276 ef3d d31c 80bd 073d 8f3e c5f7 1b3d
000002b0: c64a 443e eefe d63d 2671 8c3e aa56 edbd
000002c0: fc6d b6bb 7c60 f23d bad8 cc3b 8c65 443d
000002d0: 5eee 7e3d c36f afbd f6a5 b7bc 1703 2f3e
000002e0: 7edb 82be c19d 24be 9e86 6cbc 85ce 14bd
000002f0: c9f5 efbc 67a9 65be 7afa 323d bc1e 5bbe
00000300: efe4 373a 5121 a2bd f4ff fb3d 194e bd3d
00000310: 3935 c13c 92cf fe3c 09bd db3d 8bb0 193e
00000320: 251b 0a3e 83df 0f3e ddcc 813e 632d 47bd
00000330: cc5e bd39 0800 2b3e e3fe 8e3d 1904 40be
00000340: 8680 2fbc e9a9 4ebc c5b1 073e 1949 523e
00000350: 202b 1cbe 5953 29bc 3ff0 6bbe 3194 2bbe
00000360: f977 5a3d 35fc 153e 5d8c 4ebe 3da1 263b
00000370: a202 6bbd fe94 98bb 84e8 eabd b07e 76be
00000380: 402a 68bb 4fbf ffbb 1916 16be 7126 953d
00000390: 3d95 983c c9fd f5bc f45a 553d 543e 803e
000003a0: 3d12 d3bd 8f32 dc3d d67a a03d ffa3 b13d
000003b0: 749b bdbb a0e7 06be d1ff a1be 527b e8bd
000003c0: 19bd 85bd 4eab b53d f45b 74bd ef8e aa3d
000003d0: b782 3dbd 8b05 b3bd 2305 88bd 4836 a93d
000003e0: 480e 4c3d 02f5 5f3d 57d8 96bd af4c e3bd
000003f0: 230c 88bb 4f28 583d a9fe c0bd 0cc8 453d
0.21790595 0.1910663 -0.11707601 0.024556315 -0.19760461 -0.06025687 -0.07650541 0.039927743
0.000465622 -0.08560446 0.06372256 -0.021656878 -0.045349214 0.036064282 0.11403618 0.10387895
0.0930266 0.0028044449 0.008466055 0.011057624 0.090252444 -0.023627115 0.0036815114 -0.17201357
-0.13167287 0.07609634 0.1653245 0.15323222 0.06489381 -0.19314775 -0.21889107 0.037945252
-0.10792208 -0.07452159 0.19764198 0.023712158 0.043778285 -0.03744106 -0.034095664 0.14962341
0.07664267 0.022887552 -0.07965074 0.014321297 -0.17888989 -0.1709639 -0.08569603 0.041846838
0.042928476 -0.08059156 -0.014817276 0.1055507 -0.03690198 0.11409101 0.059664916 -0.018841544
-0.08640815 0.023201883 -0.07913667 -0.18028301 0.069441654 -0.015989827 -0.016728956 0.15542126
0.03289873 -0.11331295 -0.18191178 -0.107721746 -0.08292954 0.05303754 -0.08944556 0.2134309
0.08654721 -0.13566962 0.17801248 -0.0032484382 -0.08306168 0.037889123 -0.07620765 -0.19894567
0.2128999 -0.04295784 0.09112094 -0.019445727 -0.0072610127 -0.09239457 -0.10470836 -0.1147725
-0.26312482 0.15406968 0.014802627 -0.09645987 -0.13049348 0.1246044 -0.04206659 0.026511895
-0.007461271 -0.08216398 0.061438728 0.06212311 0.007721226 -0.07866668 0.082876325 0.07726149
0.1723183 0.0057737655 -0.15923668 0.070359215 0.16280283 -0.088982284 0.16887988 -0.09874775
-0.15767694 -0.0018639623 0.033965565 0.11543609 0.008800814 0.13366683 -0.07358081 -0.17056347
-0.08610772 -0.10928282 -0.07696996 0.047590435 0.08520857 0.101439945 0.01052877 0.0026580584
0.024488702 -0.37557262 -0.094440825 0.13548352 -0.012464429 -0.025595134 0.045462277 0.06986738
-0.016075721 0.12617686 0.16166306 -0.0022769026 0.23173755 0.101705976 0.02725321 0.00589803
0.1050756 0.10359928 0.09320123 0.04033228 -0.17765015 0.19986434 -0.00411105 0.013532515
-0.12900147 -0.16959018 -0.20591034 -0.11900423 0.16106755 -0.16947588 -0.028711574 0.121828824
-0.05723166 0.0080593955 -0.12945493 -0.11890743 0.22288589 -0.07270602 -0.124229185 -0.043387033
0.11692537 -0.06255498 0.27976248 0.03807809 0.19169149 0.10497843 0.27430075 -0.115887955
-0.0055673104 0.11834809 0.0062514218 0.047948405 0.062239043 -0.08566239 -0.022418004 0.17091022
-0.25558084 -0.16075803 -0.014436392 -0.036329765 -0.029292004 -0.22427903 0.043695904 -0.21398443
0.000701501 -0.07916511 0.123046786 0.092434116 0.023584949 0.031104837 0.10729415 0.15008752
0.13486917 0.14050107 0.2535161 -0.04862727 0.00036119518 0.1669923 0.069822095 -0.18751563
-0.010711795 -0.012613752 0.13251407 0.20535697 -0.15250826 -0.010334813 -0.23040865 -0.1675575
0.05333707 0.1464699 -0.20170732 0.0025425695 -0.057375558 -0.004656433 -0.1147013 -0.24071765
-0.0035425574 -0.007804788 -0.14656867 0.07282723 0.01862585 -0.03002824 0.052088693 0.25047553
-0.10306213 0.10751831 0.07835929 0.08673858 -0.0057863537 -0.13174295 -0.31640485 -0.113516465
-0.06530208 0.088705644 -0.059658006 0.08328044 -0.046267238 -0.087412916 -0.06641605 0.082623065
0.049818307 0.054677017 -0.07365482 -0.110986106 -0.0041518374 0.052772816 -0.094235726 0.048286483
