names/model.pt (torch, 837572 bytes, 57 tensors)

transformer.wte.weight f4 [27, 64]
000000 ea 1e ef bf 8b e0 4e 3f e6 84 e4 be 84 ec fa be
       -1.8681309 0.80811375 -0.44632643 -0.49008572
000010 4d 0e 64 3f e3 22 ac 3d 8d 61 1f 3f 85 38 9f 3d
       0.8908432 0.084050916 0.62258226 0.07774452
000020 ca f0 a0 bf 56 9d 85 3f 1e 64 35 3e db af 27 3f
       -1.2573483 1.043864 0.17713973 0.6550271
000030 bb 85 e3 be 05 9e 82 bf bc 68 08 40 83 e3 ba be
       -0.44437966 -1.0204474 2.1313925 -0.36501703
000040 70 95 7b 3f 06 01 3f 3f 25 99 bd 3e 74 36 4a 3f
       0.982749 0.74610937 0.37030903 0.7898934
000050 4c 77 68 3f f5 40 10 c0 8f 7e 2f 3f 33 55 a8 bf
       0.9080703 -2.2539647 0.6855249 -1.3151001
000060 40 55 48 3f 75 ae 92 bd b0 fc 65 be 37 77 34 bf
       0.7825508 -0.07162181 -0.22459674 -0.7049441
000070 bc 7d 2c 3e 7f 31 24 3e d9 8a e2 bf b3 33 59 bf
       0.16844839 0.16034506 -1.7698623 -0.8484451
000080 73 7d fe 3e 9e d4 68 3d d0 7a 08 c0 a5 2c 4a bf
       0.49705085 0.056843393 -2.1324959 -0.7897437
000090 48 64 6c bf b3 6b e1 3e 83 6f 04 3f 37 65 34 3e
       -0.9234052 0.4402748 0.51732653 0.17616735
0000a0 5c a3 8e be 3f 37 38 bf b2 d4 01 bf 63 1c 79 bf
       -0.27859008 -0.719593 -0.5071517 -0.9730894
0000b0 01 28 47 bf f3 96 a1 bf ff cc c6 bf 6b 0a a8 3f
       -0.77795416 -1.2624191 -1.553131 1.3128179
0000c0 c4 5f ca 3e 16 61 ae bf 65 48 b6 3f 21 57 36 bf
       0.39526188 -1.3623378 1.4240843 -0.712267
0000d0 ec 02 21 bf ac 1e 07 bf 93 48 88 bf c2 eb fb 3f
       -0.62895083 -0.52781177 -1.0647148 1.9681323
0000e0 19 76 2b 3e c6 8d c6 3e 63 a1 ae bf b6 1a 12 3f
       0.1674427 0.3878004 -1.3643001 0.5707201
0000f0 5f 5b d8 be ba 67 09 bf 19 08 42 3f e6 a5 2a 40
       -0.4225721 -0.536739 0.75793606 2.6663756
000100 12 bd 91 3f f0 7b b2 be 8a 5f f1 be c5 07 59 3f
       1.1385825 -0.34860182 -0.47143203 0.8477748
000110 b4 3b fc bf 0d b3 b1 bf 91 52 5b be 57 bd 1b bf
       -1.970572 -1.3882767 -0.21418215 -0.60835785
000120 17 4e 69 bf c9 86 00 c0 43 41 89 3e cf c6 36 3f
       -0.9113478 -2.0082266 0.26807603 0.7139711
000130 01 47 eb be 7e 90 0e 3e ad be a7 bf a3 d0 cb 3e
       -0.4595261 0.13922307 -1.3105065 0.39807615
000140 81 1c c4 3e 9b b7 da bf 25 c9 c9 bf d3 5e 75 3d
       0.38302997 -1.7087282 -1.576451 0.059904885
000150 da 04 53 be 20 6e d5 be 45 d8 52 3f 0a 65 c1 3f
       -0.2060732 -0.4168558 0.8236125 1.510896
000160 26 85 7f 3e 3c 68 5a 3e b5 7a 21 3f dc 84 c7 3d
       0.24953136 0.21328825 0.6307786 0.09742138
000170 5d 5e cb 3e 4b c2 85 3f bb c9 be bf 04 a2 e7 be
       0.3972043 1.0449919 -1.4905313 -0.45240796
000180 7a d0 3b 3d 51 3b 55 be bc b0 09 be 7f 67 0f bc
       0.045853116 -0.20823409 -0.13446325 -0.008752703
000190 cf 8e a5 bf e1 cf 44 bf 0d 62 4d bf 8a 30 2a 3f
       -1.2934207 -0.768797 -0.8022774 0.66480315
0001a0 4b d8 25 3f d5 fa 99 bf c4 0f 72 3f d6 70 7e 40
       0.6478316 -1.2029673 0.94555306 3.975637
0001b0 1f 4c ef bf f3 c0 41 bf 90 8d 7b bf e8 fc ca 3c
       -1.8695105 -0.7568504 -0.9826288 0.024778798
0001c0 a9 c7 d6 be c0 88 80 3d 74 2c 15 3f 1f a5 4e 3f
       -0.41949204 0.06276083 0.58270955 0.80720705
0001d0 13 ec 0e be d0 41 f4 3e 88 dd 03 bf 14 f4 d6 3e
       -0.13957243 0.4770646 -0.51509905 0.41983092
0001e0 32 43 80 be 5a 60 1f be 78 00 4a bf d3 cf 8f be
       -0.25051266 -0.15564099 -0.78906965 -0.28088245
0001f0 12 51 0b 3f cc b8 49 3d 6e 4a 92 bf 69 9a 54 be
       0.5442058 0.0492485 -1.1428964 -0.20762028
000200 68 b4 c6 bf 07 06 e4 3f 5a 57 78 3f b3 e1 37 be
       -1.5523806 1.7814339 0.9700829 -0.17957191
000210 91 39 70 3f ff aa c2 3f 0d a4 03 3f e9 35 c7 be
       0.9383784 1.5208434 0.51422197 -0.38908318
000220 aa 88 01 3d fb b1 32 3f 50 c5 d3 3f 0b bd 83 3e
       0.031624474 0.69802827 1.654459 0.25730166
000230 ec b0 b2 3e 0d 05 cb 3f 3d 49 0a be 1c d5 86 be
       0.34900606 1.5860916 -0.135045 -0.26334465
000240 38 34 7c 3f bf 4d bb be 92 e1 e0 3f 26 31 26 c0
       0.9851718 -0.36582753 1.7568839 -2.5967498
000250 28 1f 2b 3f 53 aa 31 bf 9d 71 a8 3d 3a e1 8c bf
       0.66844416 -0.6940052 0.08224795 -1.1006234
000260 b9 c7 1a 3f cf b8 30 3d 16 a6 dd bf 4f a4 3d 3f
       0.60461 0.043144997 -1.731631 0.7407884
000270 b4 cd 3b 3f b9 d1 ca 3e a8 55 f8 bf 86 f3 c2 3e
       0.73360753 0.3961313 -1.940114 0.3807642
000280 e1 db a1 3d 62 20 56 3f 59 9e f7 3f 54 f1 9f 3e
       0.07903267 0.8364316 1.9345199 0.31238806
000290 b3 2c a8 bf 9d 68 53 3f dd cc b1 be 69 29 3a bf
       -1.3138641 0.825815 -0.3472661 -0.72719437
0002a0 fe 59 aa 3e 4b 93 1e 3d 67 7a 12 bf 4e 79 65 bf
       0.33271784 0.03871469 -0.5721802 -0.8963822
0002b0 8a fe da 3c 20 fc 04 bf 7c 2f 22 3f 24 62 b6 3e
       0.026732702 -0.5194721 0.63353705 0.3562175
0002c0 7d 4d 0a bf ad a0 e1 3f e3 37 1f bf 7a 29 bf be
       -0.5402449 1.7627159 -0.6219465 -0.37336332
0002d0 68 0e bc 3e 05 30 ee 3e 09 cc f6 bd 35 4b b7 3f
       0.3672974 0.4652101 -0.12050635 1.4319826
0002e0 66 90 33 3f 99 65 d8 be 49 36 bd be 1e 84 de bd
       0.7014221 -0.42265013 -0.3695548 -0.10865043
0002f0 3b d0 02 40 95 1a ad 3f fc 9d 6d 3f de 52 dd bf
       2.0439594 1.3523737 0.9281919 -1.7290914
000300 cf 62 a3 3e f2 9e d0 3e f5 04 94 be d9 82 df be
       0.31911322 0.40746266 -0.28910032 -0.43654516
000310 09 af 70 bf 2a 34 32 be 89 d7 25 3e 2b 9e 5e bb
       -0.9401708 -0.17402712 0.16195501 -0.0033968787
000320 ca 63 0d c0 79 c6 84 be a1 26 e1 3e e0 20 59 3e
       -2.2092156 -0.25932673 0.43974784 0.21203947
000330 ea c1 72 3f a5 85 56 3f 45 3b 97 bf ea 03 9a 3e
       0.9482714 0.83797675 -1.1814963 0.3008111
000340 1a 1e 2a be 95 5a bf 3f fa 91 c0 3d 7b 71 2e 3f
       -0.16613045 1.4949518 0.09402843 0.6814191
000350 93 14 f6 3d 6d b3 b3 3f a3 66 8b 3e df 51 a8 bf
       0.12015643 1.4039131 0.27226743 -1.3149985
000360 69 4c 3e bf 1f 1d bb 3f 24 13 05 bd 7e 1d 4a bf
       -0.7433534 1.4618262 -0.032488957 -0.7895125
000370 25 64 1f be a3 1f cc 3f cb 09 67 3d cc 60 e6 3e
       -0.15565546 1.5947155 0.056405824 0.44995725
000380 4b da b8 bf af ad ae be 44 22 9f 3f 01 77 02 bf
       -1.4441618 -0.34116885 1.2432332 -0.50962836
000390 f9 10 d2 bd b8 a0 5c 3f bb 54 a3 be 3e aa 92 bd
       -0.102571435 0.8618274 -0.31900582 -0.07161377
0003a0 4e a3 10 40 2a 35 4d bf e3 c5 15 3f 88 a2 12 c0
       2.2599673 -0.80159247 0.58505076 -2.2911701
0003b0 93 e7 d0 bd 06 7c 68 bf cc 97 16 40 8c 48 b8 bd
       -0.10200419 -0.90814245 2.353015 -0.08998212
0003c0 38 5e 57 bf 74 9d b6 bd 2a 59 d8 3e 9c 43 35 3d
       -0.8412814 -0.089167506 0.42255527 0.04425393
0003d0 28 4c ae bf 46 80 b8 3d d9 bd 6d be f0 4d 72 bd
       -1.3616991 0.09008841 -0.23216952 -0.05915636
0003e0 93 be 44 bf 56 35 36 bf 4e 0a ce bf 6a 11 0e bf
       -0.76853293 -0.71175134 -1.6096895 -0.5549532
0003f0 88 e5 75 3f 7e a5 39 3f 7d 47 59 be 35 ba 0d 3f
       0.9605336 0.72518146 -0.21218677 0.55362254

transformer.wpe.weight f4 [16, 64]
000000 bb 5a 35 bf f7 e0 16 3e 6f a6 09 3e a1 54 63 3f
       -0.7084157 0.14734255 0.13442396 0.8880101
000010 b3 1b 2b bf 33 17 6c 3e 80 7a b5 bf ab 95 ab bf
       -0.6683914 0.23055725 -1.4178009 -1.340505
000020 8e 3f 6b 3f 4f 5c b6 3f 34 5c c6 bd dc aa dc bf
       0.9189385 1.424692 -0.09685555 -1.7239642
000030 a6 59 4c bf 87 82 12 c0 4f 80 17 be 4f 65 77 bf
       -0.7982429 -2.2892168 -0.1479504 -0.9663896
000040 08 69 07 40 cd 5d b3 bd 98 62 58 be 00 70 35 3f
       2.1157856 -0.087581255 -0.2113136 0.70874023
000050 dd 12 15 3f 44 a6 ca 3f f8 90 c2 be b9 15 31 3d
       0.5823191 1.583199 -0.38001227 0.043233607
000060 44 e3 0c 3f 08 15 7f 3e e0 7b 0c 40 66 24 c9 be
       0.5503428 0.24910367 2.1950607 -0.39285582
000070 e6 9f fb bf 02 41 96 3f fe 6c 15 bd 65 be 4f bf
       -1.9658172 1.1738589 -0.036480896 -0.81149894
000080 5c bf 0f bf 34 8d 3a bf 0f 66 25 3f ba b5 4c 3e
       -0.56151366 -0.7287171 0.64608854 0.19991198
000090 46 fa 9f 3e 32 66 ad bd 2b c0 37 3f 41 02 52 bf
       0.3124563 -0.08466758 0.717776 -0.8203469
0000a0 3a 6b 6e 3f eb 87 e7 3f 9a 89 3c bf 60 64 82 be
       0.93132365 1.8088354 -0.73647463 -0.25467205
0000b0 29 1e 75 3f 32 3a 50 3f 9e b2 54 bf 61 82 67 bf
       0.95749146 0.813388 -0.8308505 -0.9043332
0000c0 83 a9 f8 3e a8 9a 97 3e 49 c3 7c 3f 96 60 a6 3f
       0.48566827 0.2961018 0.9873548 1.2998226
0000d0 dc da 0c 40 44 82 dd 3f 2f a4 1a 3f dc 4f c2 be
       2.200858 1.7305379 0.60406774 -0.37951553
0000e0 f6 0f 43 be f5 3c 10 40 fe d3 a7 bf 4e 8b c0 be
       -0.19049057 2.2537205 -1.311157 -0.3760628
0000f0 5f ea c3 3f 49 80 f4 3e cc 4d f2 bc b2 ff 77 bf
       1.5305899 0.47754124 -0.029578112 -0.96874535
000100 19 bf bb 3f 60 4b 23 bf 91 b6 84 bd 3b d8 22 c0
       1.4667693 -0.6378689 -0.06480134 -2.5444477
000110 5a ab 3d be 91 f5 0a 3f c2 90 5f bf eb 97 99 3e
       -0.18522397 0.54280955 -0.8733026 0.29998717
000120 37 79 11 c0 6f 9f a4 be de 9b 87 bf 1f 3b 83 3e
       -2.2730234 -0.32152888 -1.0594442 0.25631043
000130 fa 6c 9b bf 77 b4 3e bf c7 ac 42 bf 25 d2 c1 3e
       -1.2142632 -0.7449412 -0.7604489 0.3785564
000140 21 4e c4 3e d9 bb c0 bf dc 93 a9 3e 87 7b 54 bf
       0.38340858 -1.5057327 0.3312062 -0.8300099
000150 a2 6d 02 3f 18 44 90 bf e6 ea 5b be 28 66 0e c0
       0.50948536 -1.127078 -0.21476325 -2.2249851
000160 96 07 80 bf 47 44 44 3f ca a0 aa 3e b4 06 25 3e
       -1.0002315 0.7666668 0.33325797 0.16115838
000170 72 c0 c0 3f 22 33 df be 53 e3 04 bf 99 17 64 bf
       1.505873 -0.435937 -0.5190937 -0.8909851
000180 ae a5 0f bf 41 0a 76 3f 9a 0e 83 3f aa f4 1a be
       -0.5611218 0.96109396 1.0238831 -0.15132394
000190 23 11 18 bf 3d 3e 31 3f 84 ab 93 3d 88 a4 4f bf
       -0.5940115 0.69235593 0.072104484 -0.8111043
0001a0 6f f2 a9 be ab d3 f6 bf 0c 84 95 be 18 18 9a 3f
       -0.33192775 -1.9283346 -0.29202306 1.2038603
0001b0 32 c7 53 bf fd af 8e be 23 f9 87 bf c4 4c 29 3d
       -0.8272582 -0.27868643 -1.0622905 0.041332975
0001c0 e5 cb a4 be 3b a6 0c bf 2d 33 2f bd 4c 46 27 be
       -0.3218681 -0.5494115 -0.042773414 -0.1633541
0001d0 fe eb 02 bf b4 ee a6 bd 88 1c 33 c0 ba 60 5d bf
       -0.51141346 -0.08150998 -2.7986164 -0.8647572
0001e0 4b 40 51 3f 25 0b b0 3f f8 b8 8f 3e 98 24 8d 3b
       0.8173873 1.3753401 0.28070807 0.004307341
0001f0 d3 dd 87 bf 01 8f a4 bd c9 87 1f 3f c4 cf 35 3e
       -1.061457 -0.08035088 0.62316567 0.17755038
000200 da ef 96 3f 21 6a b6 3f 9b 8f de 3e 15 e3 e1 3e
       1.1791947 1.4251138 0.43468937 0.44118562
000210 6d b6 d0 3e 6d 60 2c bf 46 eb 93 bd 5a 9b 2b 3f
       0.4076418 -0.67334634 -0.07222609 0.6703392
000220 6d 4b 27 3f ea ce 9d 3f da 55 d1 3f 26 ef 18 3f
       0.65349466 1.232877 1.6354325 0.5973991
000230 f5 54 c5 3e ff ae 32 bf 15 42 6f 3f c2 ae 0f 3f
       0.3854138 -0.6979827 0.9346021 0.56126034
000240 cf ab 6f 3e c1 08 88 be 72 cf da bd f3 49 16 bf
       0.23405384 -0.2656918 -0.10684098 -0.5870659
000250 0c 33 49 3e e2 78 e9 bf f8 07 93 3f 46 73 6a bf
       0.19648379 -1.8240016 1.1486807 -0.91582143
000260 0f 1d 79 3f cb dc b0 bd 79 ef b6 3e 5c d2 4e 3f
       0.97309965 -0.08635863 0.35729578 0.8078973
000270 af cb 4c bf ec a3 8a bf e4 45 85 3f ee c3 07 c0
       -0.79998296 -1.0831275 1.0411954 -2.1213336
000280 f5 d2 cf 3f 48 49 39 bf 0b b4 a0 3e 3f d8 88 3f
       1.6236254 -0.72377443 0.31387362 1.0690993
000290 3e 20 91 3e 77 e4 09 3d 7e 18 d6 bf 21 41 45 3f
       0.2834491 0.033665147 -1.6726224 0.77052504
0002a0 08 ad 41 bd 1e f7 69 bf 50 6b 3f 3f a6 9d 28 bf
       -0.047284156 -0.91392696 0.7477312 -0.6586555
0002b0 65 50 26 3f 63 65 03 3f cb cb 39 bf a4 c9 2f bf
       0.6496642 0.5132658 -0.7257659 -0.68667054
0002c0 2e 2d 06 3f 34 60 3f 3f a6 90 8b 3c 2a ab 16 be
       0.5241269 0.7475617 0.017036747 -0.14713731
0002d0 5a bc 47 bf 36 bd 8f be d3 57 f2 be a3 71 e6 3f
       -0.78021777 -0.28074044 -0.4733263 1.8003429
0002e0 38 2b 33 3d 1d 45 d5 bc 26 fb 89 be 49 a6 22 bf
       0.04374239 -0.026033932 -0.26949424 -0.6353498
0002f0 91 f0 f7 bf d3 34 71 3f c6 a2 13 c0 40 b9 5c be
       -1.937029 0.9422123 -2.30681 -0.21555042
000300 7a 4f ed 3e e2 7a d6 3f 3f d8 80 be 4e 04 93 bf
       0.46349698 1.6756251 -0.25164983 -1.1485689
000310 34 32 41 3f 61 1f b2 3d a0 99 dd 3b 53 44 2d 3f
       0.7546723 0.08697391 0.0067626983 0.6768238
000320 bd 90 94 3f bf 07 51 bf 6a 4a cd 3f 9f 53 7f be
       1.1606671 -0.81652445 1.6038334 -0.24934243
000330 0c 92 b5 3f c8 3d 39 bf a7 f0 b9 be 26 4c 97 3f
       1.4185195 -0.72359896 -0.36316416 1.1820114
000340 8c e0 05 c0 0e d9 15 c0 54 90 9c be 9b 91 b8 3e
       -2.0918303 -2.341373 -0.30578864 0.36048588
000350 03 10 c7 be 9d 8f 4a bf 62 28 70 bf d3 9a b4 3f
       -0.38879403 -0.79125386 -0.9381162 1.4109749
000360 16 fb 93 be 8b 17 59 3e 50 cf 62 bf 47 7f 55 3e
       -0.289025 0.21200387 -0.88597584 0.20849334
000370 c4 49 58 bf bb 36 dd bf 8c af a8 3e a5 92 65 3f
       -0.8448756 -1.7282327 0.32946432 0.89676887
000380 67 85 08 40 3a 35 29 40 2b 26 f4 bc c9 6f d6 3f
       2.1331422 2.6438737 -0.029803356 1.6752864
000390 28 e9 4b bf 07 97 79 bf 27 83 78 bf 76 47 28 3f
       -0.79652643 -0.97496074 -0.9707512 0.6573404
0003a0 b7 63 61 3e 07 69 56 3f 24 68 df 3d 52 df 94 be
       0.22010694 0.8375401 0.10908535 -0.2907663
0003b0 67 2e 0c be cf ea d8 3d 8b 49 c1 3e 59 98 b1 bc
       -0.13689576 0.10591661 0.3775142 -0.02167909
0003c0 fd 8e 0e be 71 57 39 3e 3a 90 73 3e a0 dc 02 40
       -0.13921733 0.18099762 0.23785487 2.044716
0003d0 22 5b a5 bf a5 4c 96 3e 27 81 b5 3f 74 8d 11 be
       -1.2918437 0.2935535 1.4180039 -0.14214116
0003e0 f6 4b cc be 16 9f 94 bf 8b 4a 01 bf d8 ad 5f bd
       -0.39901704 -1.1611049 -0.5050437 -0.05460915
0003f0 c3 54 7f bf 94 f6 7e 3f f9 22 96 bd 9f 2c f0 3e
       -0.9973871 0.99595 -0.07330889 0.46909043

transformer.h.0.ln_1.weight f4 [64]
000000 18 b6 81 3f 66 2e 81 3f 35 09 95 3f 39 48 88 3f
       1.0133696 1.0092285 1.1643435 1.0647041
000010 d0 59 8c 3f f2 17 88 3f c2 f9 89 3f af 57 84 3f
       1.0964909 1.0632308 1.0779345 1.0339259
000020 fa ea 85 3f f2 4f 88 3f 6b 64 85 3f f6 b3 7a 3f
       1.0462334 1.0649397 1.042127 0.9793085
000030 f4 88 8a 3f df f9 7f 3f 20 bd 87 3f ea e1 82 3f
       1.0823045 0.9999065 1.0604591 1.0225194
000040 58 d0 81 3f e3 b5 86 3f 3d 11 89 3f 71 7e 99 3f
       1.0141706 1.0524257 1.0708386 1.1991712
000050 16 46 81 3f 90 e9 8b 3f d4 53 94 3f 70 e8 8a 3f
       1.0099514 1.0930653 1.1588082 1.0852184
000060 40 76 8d 3f 38 90 90 3f 8b 6c 83 3f fb 01 8c 3f
       1.1051712 1.1294012 1.02675 1.0938104
000070 6a 8a 81 3f b1 f2 88 3f d3 11 89 3f d8 5e 6f 3f
       1.0120366 1.0699064 1.0708565 0.93504095
000080 89 11 79 3f ae 0e 82 3f 44 4a 89 3f fe 42 81 3f
       0.9729238 1.016073 1.0725789 1.0098569
000090 0a 25 88 3f eb 29 80 3f 44 b0 83 3f b8 a7 8d 3f
       1.0636303 1.0012792 1.0288167 1.1066809
0000a0 fe 02 92 3f a9 4a 8c 3f d5 13 8a 3f 22 22 8f 3f
       1.1407163 1.0960284 1.0787302 1.1182292
0000b0 d5 de 8f 3f 66 d1 93 3f e4 21 83 3f b3 01 8a 3f
       1.1239878 1.1548278 1.0244718 1.0781769
0000c0 84 5f 96 3f e2 83 84 3f df 80 88 3f b1 a9 92 3f
       1.1747899 1.0352747 1.0664328 1.1458036
0000d0 f5 fa 8a 3f 03 aa 8f 3f c9 3f 7d 3f b7 cc 8a 3f
       1.0857836 1.1223758 0.98925453 1.0843724
0000e0 04 5a 8f 3f 41 fd 80 3f e2 78 89 3f 6c b8 8a 3f
       1.1199346 1.0077287 1.0740016 1.0837531
0000f0 e9 1c 83 3f d0 64 84 3f 77 25 87 3f 3a 04 8e 3f
       1.0243198 1.0343266 1.0558308 1.109504

transformer.h.0.ln_1.bias f4 [64]
000000 b5 e0 12 bd d8 45 95 bd ca 2a 3f 3d 55 1d b4 bb
       -0.03585883 -0.07288712 0.046671666 -0.0054966607
000010 13 f4 4d 3b 4f 5a 56 3c 5b e5 89 3b 12 8b f9 bc
       0.0031425997 0.013083055 0.0042082495 -0.030461822
000020 c0 45 55 3c 57 4b 0f 3d f7 3c a2 bc 20 f4 21 bc
       0.013017118 0.03498396 -0.01980446 -0.009884864
000030 c7 48 30 3d bb 8a f1 3c 31 0f c3 3b 26 9a 04 bd
       0.043038156 0.029485097 0.0059527387 -0.03237357
000040 28 c6 ee bb ba 37 66 3c ac f9 b4 bc 51 e6 06 bc
       -0.0072868057 0.014051372 -0.02209171 -0.008233623
000050 14 05 e0 bc de d9 4c 3d 3c d6 b3 3b 37 5b fe 3a
       -0.027346171 0.05001246 0.005488185 0.0019405846
000060 14 75 82 bc c2 e7 3b bd 48 c7 3f bd 3a ae f8 3b
       -0.015924968 -0.04587532 -0.04682091 0.007589129
000070 4b 7d 16 3d 09 ad 19 3c ba a6 07 3d 0c e6 6d 3d
       0.036740582 0.009379634 0.033117987 0.058080718
000080 ac bd 6d bd 4b ce 27 bd d3 59 70 bd 71 07 95 bc
       -0.058042213 -0.04096822 -0.058679413 -0.018192025
000090 25 43 47 3d 29 b8 90 3c e4 43 0e 3d 71 99 8c 3c
       0.04864802 0.01766594 0.034732714 0.01716301
0000a0 29 5a 45 3c da 8f 70 3d e3 66 56 3b 5c 6f b8 bc
       0.012045422 0.058730938 0.0032715134 -0.022514038
0000b0 ff 0b d1 bc 2e 5a 7d 3b 74 1c 57 3c 22 7a 48 bc
       -0.025518415 0.0038658488 0.013129342 -0.01223615
0000c0 da 95 a7 bc c7 e4 01 bc 4e 02 7a bc 28 e2 61 bc
       -0.020457197 -0.00792808 -0.015259339 -0.01378683
0000d0 2e 7b ff 3b 77 7d 94 bc b8 ef cb 3c fd 96 29 bd
       0.0077966666 -0.018126233 0.02489458 -0.04140376
0000e0 a4 14 24 bd ff a8 19 bd bd 9b 58 3c 9a 05 9a 3b
       -0.040058747 -0.037514683 0.013220725 0.004700375
0000f0 70 70 10 3d 38 9d 59 bd 14 4b 21 bc 86 a7 83 bc
       0.03526348 -0.05312845 -0.00984456 -0.016071092

transformer.h.0.attn.bias f4 [1, 1, 16, 16]
000000 00 00 80 3f 00 00 00 00 00 00 00 00 00 00 00 00
       1.0 0.0 0.0 0.0
000010 00 00 00 00 00 00 00 00 00 00 00 00 00 00 00 00
       0.0 0.0 0.0 0.0
000020 00 00 00 00 00 00 00 00 00 00 00 00 00 00 00 00
       0.0 0.0 0.0 0.0
000030 00 00 00 00 00 00 00 00 00 00 00 00 00 00 00 00
       0.0 0.0 0.0 0.0
000040 00 00 80 3f 00 00 80 3f 00 00 00 00 00 00 00 00
       1.0 1.0 0.0 0.0
000050 00 00 00 00 00 00 00 00 00 00 00 00 00 00 00 00
       0.0 0.0 0.0 0.0
000060 00 00 00 00 00 00 00 00 00 00 00 00 00 00 00 00
       0.0 0.0 0.0 0.0
000070 00 00 00 00 00 00 00 00 00 00 00 00 00 00 00 00
       0.0 0.0 0.0 0.0
000080 00 00 80 3f 00 00 80 3f 00 00 80 3f 00 00 00 00
       1.0 1.0 1.0 0.0
000090 00 00 00 00 00 00 00 00 00 00 00 00 00 00 00 00
       0.0 0.0 0.0 0.0
0000a0 00 00 00 00 00 00 00 00 00 00 00 00 00 00 00 00
       0.0 0.0 0.0 0.0
0000b0 00 00 00 00 00 00 00 00 00 00 00 00 00 00 00 00
       0.0 0.0 0.0 0.0
0000c0 00 00 80 3f 00 00 80 3f 00 00 80 3f 00 00 80 3f
       1.0 1.0 1.0 1.0
0000d0 00 00 00 00 00 00 00 00 00 00 00 00 00 00 00 00
       0.0 0.0 0.0 0.0
0000e0 00 00 00 00 00 00 00 00 00 00 00 00 00 00 00 00
       0.0 0.0 0.0 0.0
0000f0 00 00 00 00 00 00 00 00 00 00 00 00 00 00 00 00
       0.0 0.0 0.0 0.0
000100 00 00 80 3f 00 00 80 3f 00 00 80 3f 00 00 80 3f
       1.0 1.0 1.0 1.0
000110 00 00 80 3f 00 00 00 00 00 00 00 00 00 00 00 00
       1.0 0.0 0.0 0.0
000120 00 00 00 00 00 00 00 00 00 00 00 00 00 00 00 00
       0.0 0.0 0.0 0.0
000130 00 00 00 00 00 00 00 00 00 00 00 00 00 00 00 00
       0.0 0.0 0.0 0.0
000140 00 00 80 3f 00 00 80 3f 00 00 80 3f 00 00 80 3f
       1.0 1.0 1.0 1.0
000150 00 00 80 3f 00 00 80 3f 00 00 00 00 00 00 00 00
       1.0 1.0 0.0 0.0
000160 00 00 00 00 00 00 00 00 00 00 00 00 00 00 00 00
       0.0 0.0 0.0 0.0
000170 00 00 00 00 00 00 00 00 00 00 00 00 00 00 00 00
       0.0 0.0 0.0 0.0
000180 00 00 80 3f 00 00 80 3f 00 00 80 3f 00 00 80 3f
       1.0 1.0 1.0 1.0
000190 00 00 80 3f 00 00 80 3f 00 00 80 3f 00 00 00 00
       1.0 1.0 1.0 0.0
0001a0 00 00 00 00 00 00 00 00 00 00 00 00 00 00 00 00
       0.0 0.0 0.0 0.0
0001b0 00 00 00 00 00 00 00 00 00 00 00 00 00 00 00 00
       0.0 0.0 0.0 0.0
0001c0 00 00 80 3f 00 00 80 3f 00 00 80 3f 00 00 80 3f
       1.0 1.0 1.0 1.0
0001d0 00 00 80 3f 00 00 80 3f 00 00 80 3f 00 00 80 3f
       1.0 1.0 1.0 1.0
0001e0 00 00 00 00 00 00 00 00 00 00 00 00 00 00 00 00
       0.0 0.0 0.0 0.0
0001f0 00 00 00 00 00 00 00 00 00 00 00 00 00 00 00 00
       0.0 0.0 0.0 0.0
000200 00 00 80 3f 00 00 80 3f 00 00 80 3f 00 00 80 3f
       1.0 1.0 1.0 1.0
000210 00 00 80 3f 00 00 80 3f 00 00 80 3f 00 00 80 3f
       1.0 1.0 1.0 1.0
000220 00 00 80 3f 00 00 00 00 00 00 00 00 00 00 00 00
       1.0 0.0 0.0 0.0
000230 00 00 00 00 00 00 00 00 00 00 00 00 00 00 00 00
       0.0 0.0 0.0 0.0
000240 00 00 80 3f 00 00 80 3f 00 00 80 3f 00 00 80 3f
       1.0 1.0 1.0 1.0
000250 00 00 80 3f 00 00 80 3f 00 00 80 3f 00 00 80 3f
       1.0 1.0 1.0 1.0
000260 00 00 80 3f 00 00 80 3f 00 00 00 00 00 00 00 00
       1.0 1.0 0.0 0.0
000270 00 00 00 00 00 00 00 00 00 00 00 00 00 00 00 00
       0.0 0.0 0.0 0.0
000280 00 00 80 3f 00 00 80 3f 00 00 80 3f 00 00 80 3f
       1.0 1.0 1.0 1.0
000290 00 00 80 3f 00 00 80 3f 00 00 80 3f 00 00 80 3f
       1.0 1.0 1.0 1.0
0002a0 00 00 80 3f 00 00 80 3f 00 00 80 3f 00 00 00 00
       1.0 1.0 1.0 0.0
0002b0 00 00 00 00 00 00 00 00 00 00 00 00 00 00 00 00
       0.0 0.0 0.0 0.0
0002c0 00 00 80 3f 00 00 80 3f 00 00 80 3f 00 00 80 3f
       1.0 1.0 1.0 1.0
0002d0 00 00 80 3f 00 00 80 3f 00 00 80 3f 00 00 80 3f
       1.0 1.0 1.0 1.0
0002e0 00 00 80 3f 00 00 80 3f 00 00 80 3f 00 00 80 3f
       1.0 1.0 1.0 1.0
0002f0 00 00 00 00 00 00 00 00 00 00 00 00 00 00 00 00
       0.0 0.0 0.0 0.0
000300 00 00 80 3f 00 00 80 3f 00 00 80 3f 00 00 80 3f
       1.0 1.0 1.0 1.0
000310 00 00 80 3f 00 00 80 3f 00 00 80 3f 00 00 80 3f
       1.0 1.0 1.0 1.0
000320 00 00 80 3f 00 00 80 3f 00 00 80 3f 00 00 80 3f
       1.0 1.0 1.0 1.0
000330 00 00 80 3f 00 00 00 00 00 00 00 00 00 00 00 00
       1.0 0.0 0.0 0.0
000340 00 00 80 3f 00 00 80 3f 00 00 80 3f 00 00 80 3f
       1.0 1.0 1.0 1.0
000350 00 00 80 3f 00 00 80 3f 00 00 80 3f 00 00 80 3f
       1.0 1.0 1.0 1.0
000360 00 00 80 3f 00 00 80 3f 00 00 80 3f 00 00 80 3f
       1.0 1.0 1.0 1.0
000370 00 00 80 3f 00 00 80 3f 00 00 00 00 00 00 00 00
       1.0 1.0 0.0 0.0
000380 00 00 80 3f 00 00 80 3f 00 00 80 3f 00 00 80 3f
       1.0 1.0 1.0 1.0
000390 00 00 80 3f 00 00 80 3f 00 00 80 3f 00 00 80 3f
       1.0 1.0 1.0 1.0
0003a0 00 00 80 3f 00 00 80 3f 00 00 80 3f 00 00 80 3f
       1.0 1.0 1.0 1.0
0003b0 00 00 80 3f 00 00 80 3f 00 00 80 3f 00 00 00 00
       1.0 1.0 1.0 0.0
0003c0 00 00 80 3f 00 00 80 3f 00 00 80 3f 00 00 80 3f
       1.0 1.0 1.0 1.0
0003d0 00 00 80 3f 00 00 80 3f 00 00 80 3f 00 00 80 3f
       1.0 1.0 1.0 1.0
0003e0 00 00 80 3f 00 00 80 3f 00 00 80 3f 00 00 80 3f
       1.0 1.0 1.0 1.0
0003f0 00 00 80 3f 00 00 80 3f 00 00 80 3f 00 00 80 3f
       1.0 1.0 1.0 1.0

transformer.h.0.attn.c_attn.weight f4 [192, 64]
000000 2a f3 ed bd a3 dc 1a bc cf 56 c8 3d 68 c5 3a bd
       -0.116186455 -0.009452018 0.097821824 -0.045598418
000010 86 47 81 3d a0 2c c9 bc 60 f6 38 bc 5f dd ed bd
       0.0631247 -0.024557412 -0.011289209 -0.11614489
000020 ea 3d 08 bd 4b ee fb 3d 08 2c 11 be b3 c7 cb bd
       -0.03326217 0.1230131 -0.14176953 -0.09950199
000030 87 fe 2b 3e 48 56 8f 3d ad b6 e1 3c 33 55 fe bb
       0.16796313 0.06998879 0.027552927 -0.0077616214
000040 e3 3a cb 3d 76 1b 63 3d e4 3d 44 bc b8 af 62 3d
       0.09923341 0.05544611 -0.0119776465 0.05534336
000050 23 22 42 3d 83 67 a1 bc 15 80 ab bd 52 9a 2a 3d
       0.047395837 -0.019702679 -0.08374039 0.041651078
000060 26 68 b3 bd 3d f7 c6 3d b8 9c 90 bd 87 b9 24 bd
       -0.08760099 0.09715126 -0.07061142 -0.040215995
000070 75 7d bb bd e8 87 80 bd b0 f4 5d be cc 6a 71 3d
       -0.091547884 -0.06275922 -0.21675372 0.05893974
000080 35 c4 f9 3d d3 25 1c 3d 1d b4 94 bd c8 ac 53 3d
       0.12195627 0.03812201 -0.072609164 0.05167845
000090 34 7b c6 bb 93 8e 9b 3c db b0 19 3b 71 eb bd bc
       -0.0060571674 0.018988883 0.0023451361 -0.023183556
0000a0 7f 50 ce 3d fd 89 2a 3c d8 d8 3c 3e f3 e3 c1 3d
       0.10073947 0.0104088755 0.18442094 0.09467306
0000b0 7f 48 59 be ce 94 e6 bd 8b 48 1c 3e a0 b9 c3 bd
       -0.21219061 -0.11258851 0.15262048 -0.095568895
0000c0 9c 30 d7 bd cb 3d 44 3d 91 23 20 3e 52 45 50 be
       -0.105073184 0.047910493 0.15638568 -0.20338944
0000d0 f7 a3 cb 3d 53 1c 81 bc da 3b 40 3d 36 8a e2 3d
       0.09943383 -0.015760576 0.04693208 0.11061518
0000e0 b9 2f 96 bd f0 09 4b bd 3b e6 f4 bd a6 ca 23 3d
       -0.07333321 -0.049570024 -0.119579755 0.039988182
0000f0 f4 54 bf bd 54 fe e7 bd ae d1 66 3d 60 5a f4 3b
       -0.093423754 -0.11327806 0.05635231 0.0074570626
000100 26 0f 40 bd 54 7a c2 bc 9e a1 c4 3d 4c 3e 4d 3d
       -0.046889447 -0.023739971 0.096011385 0.05010824
000110 ec 47 16 3e 9c b3 f7 bd 80 e6 af bc db e5 a7 bd
       0.14675874 -0.12094805 -0.021472216 -0.08198138
000120 7e 2a 46 3e 7e 23 f9 3c d5 48 bd bd f5 57 3e bd
       0.19352147 0.030412432 -0.09242407 -0.0464706
000130 b6 5d d5 bc 6c 83 c1 bd f3 3c cd bb a1 61 3d bd
       -0.026045661 -0.09448895 -0.006263369 -0.046235684
000140 7b c6 fb 3d 33 1e 52 3d 49 57 00 be 77 d8 70 bd
       0.122937165 0.05129833 -0.12533297 -0.058800187
000150 12 42 1e 3e b7 cc 1f be 61 be 3b bd 3c 89 9f 3d
       0.15454891 -0.15605436 -0.045835856 0.07789847
000160 cb 0e df 3c ea 3b c7 3d 67 55 48 3d 73 16 ba 3c
       0.027228734 0.097282246 0.04890957 0.022715783
000170 e2 00 19 3e 72 54 03 3d aa 86 28 3d a6 ec bb bd
       0.14941743 0.032062955 0.04114405 -0.091759965
000180 4b 33 fd 3c 3f 8d 3c 3d 27 f3 84 bd 57 cc d1 3d
       0.030908247 0.04603314 -0.0649169 0.10244053
000190 8a aa 05 3d 11 e4 9b 3d dd 93 e5 3d e7 cc fe bc
       0.03263334 0.076118596 0.11209843 -0.031103564
0001a0 b8 56 d8 3d 2d 8e 11 3d aa d4 94 3d 41 83 03 be
       0.10563415 0.03553598 0.07267125 -0.12843038
0001b0 38 77 1e be 12 72 8e bc 15 3b 0f 3d e5 1c a5 bd
       -0.15475166 -0.017388377 0.034968454 -0.08062152
0001c0 67 d3 88 3d 8e 89 52 3e 92 3d 07 3e a3 b4 e0 bc
       0.06680947 0.20560285 0.13207081 -0.027429884
0001d0 78 7a 45 bd b4 17 85 bd 6e eb 27 bd 95 e0 07 3e
       -0.0482125 -0.06498662 -0.040996008 0.13269265
0001e0 b6 d9 0b 3e 8e d2 91 3a aa 24 ef 3d 71 84 83 bd
       0.13657269 0.0011125372 0.11676915 -0.064217456
0001f0 ac ac 08 be e0 19 d1 bd f2 36 08 3e 00 d3 cb 3d
       -0.13347119 -0.102100134 0.1330221 0.099523544
000200 18 22 fd bd bc d0 ec 3d 79 73 c1 bd 14 bd 5b 3d
       -0.123600185 0.115632504 -0.09445853 0.053647116
000210 ce 71 a3 3d 7d e1 20 bd 0f 17 a4 3d 3d cc 6c 3b
       0.07980691 -0.039277542 0.080122106 0.0036132478
000220 67 0b 09 3e 79 1f 82 bc d7 70 ca 3d 66 60 49 be
       0.13383256 -0.015884148 0.09884804 -0.1966568
000230 1e 18 05 be a5 0e 8d bc 01 fd fe bc 0c a1 f7 3b
       -0.12997481 -0.017218897 -0.031126501 0.00755704
000240 8a 6c 26 3d 18 f9 16 bd fd 0c 02 3d 8e e9 d5 bc
       0.040630855 -0.036858648 0.031750668 -0.026112344
000250 3c 5f 9e bd 57 f2 29 bc e8 3d ce bc 77 a7 11 bd
       -0.07733008 -0.01037272 -0.025176004 -0.035560098
000260 eb 74 10 bc b8 86 00 be 71 0d 2b 3d 8c 9f 23 bd
       -0.008816938 -0.12551391 0.041760866 -0.039947078
000270 d6 ef e6 bc 3f 57 05 bd f5 ba 16 3e 02 5e 92 3c
       -0.028190535 -0.032553907 0.14719756 0.017867092
000280 e7 56 2a bd 8a 9d fd 3d 64 4f 85 3c d1 cd 95 3d
       -0.041586783 0.12383564 0.016273208 0.07314647
000290 c2 ec 23 3b b6 f8 3a bb b7 37 05 3e 06 28 3e 3d
       0.0025012945 -0.002852959 0.13009535 0.046424888
0002a0 1f df c1 bc 3c 95 1d 3d 80 90 d7 bc 74 9b e7 3d
       -0.023665963 0.0384724 -0.02631402 0.11308947
0002b0 5f 8c 05 3e e7 75 8d 3c f4 da 00 be cf 45 99 bd
       0.13041829 0.017268134 -0.12583524 -0.07484018
0002c0 5a 78 38 3e be 59 85 bc d4 29 a1 bd e2 dc fa 3c
       0.1801466 -0.016278144 -0.07869306 0.030622903
0002d0 0d e8 19 3d c0 b8 13 3e ad b3 4c 3d 0a 54 d4 bd
       0.037574816 0.14425945 0.04997604 -0.10367592
0002e0 af 60 44 bd 9d 3f 5f 3c 5c ab 81 3d 05 3d b9 bd
       -0.047943767 0.013626006 0.06331512 -0.09044842
0002f0 ee e6 e8 bd 01 19 34 bd 86 e6 0c be 8d b3 5f 3d
       -0.11372171 -0.043969158 -0.13759813 0.054614592
000300 5a fc 3b bd a7 69 32 3d 8b 9e c3 3d 31 2f b3 bd
       -0.045894958 0.04355779 0.09551724 -0.087492354
000310 dc ca 43 3e c7 a3 26 3e c1 11 84 3d 5a c6 95 3d
       0.19120353 0.16273414 0.06448699 0.07313223
000320 f5 e0 4e 3d 69 c6 38 3e 33 9d f5 3c 1e 57 3f bd
       0.050507504 0.18044437 0.029982185 -0.04671394
000330 8f 3e 4d bd 71 51 26 3d b6 22 85 3a 2a 74 ce bb
       -0.05010849 0.040605012 0.0010157439 -0.006300469
000340 22 4e a7 bd 04 f0 04 bd 18 b0 33 3c ce 36 2f be
       -0.081691995 -0.03245546 0.010967277 -0.1711075
000350 60 95 86 bd bb 34 fd bb c6 c3 27 bd f7 31 41 bd
       -0.0657146 -0.007727233 -0.04095819 -0.04716679
000360 99 97 38 bd 3f d6 ac 3d 7b 2f 1d be 67 0e 8f bd
       -0.04506645 0.08439302 -0.15350144 -0.06985169
000370 a0 b9 8a bc b2 54 46 3a 14 d1 cc bc e8 84 99 3d
       -0.016934216 0.0007565721 -0.02500204 0.07496053
000380 42 32 24 bd e4 d5 ef 3c 8c da 4d be d1 a8 ec 3d
       -0.040086992 0.029276796 -0.201029 0.11555637
000390 f2 1e 60 be 33 21 d9 bd 92 63 d4 3d 5f 6e 51 3d
       -0.21886805 -0.106020354 0.10370554 0.05113065
0003a0 ba bf 02 3d f1 90 c8 3c 78 d2 86 3d fb 1e fb bb
       0.031921126 0.024483176 0.065831125 -0.0076636053
0003b0 79 d3 37 3d 1c 0e 0b be 1f 26 a4 bd 68 d1 10 3e
       0.04487941 -0.13579601 -0.080150835 0.14142382
0003c0 69 d4 3b 3d 2d 1b 8b 3d d8 5d 8f 3d 22 d9 09 be
       0.045856867 0.06792293 0.07000321 -0.13461736
0003d0 48 e0 58 3d 34 bf 48 3d 2b 18 f4 bd 9c 93 ea 3c
       0.052948266 0.04901047 -0.11918672 0.028634839
0003e0 9c 2b 06 bd c4 90 8e 3b d4 f0 bd 3c ac 7a d1 3c
       -0.032756433 0.0043507535 0.023186125 0.02557119
0003f0 d2 87 03 be 85 91 fe bd 4e 22 53 3d c3 7e aa 3d
       -0.1284478 -0.124300994 0.051546387 0.08324959

transformer.h.0.attn.c_attn.bias f4 [192]
000000 e8 a5 51 bc 36 cb 31 be 00 e9 0a be e5 23 96 bc
       -0.012795903 -0.17362675 -0.13565445 -0.018327663
000010 70 b2 bd 3d e2 a1 8c bd 34 a8 70 3b d4 8d f4 bd
       0.0926255 -0.06866814 0.003672135 -0.11941114
000020 df ac 96 3d f6 15 77 3d fd 0f 1f be 0c cc e6 bd
       0.07357191 0.060323678 -0.15533443 -0.112693876
000030 d1 ae d1 3a 62 c5 ac b9 eb e1 38 3d 1e 93 a7 bc
       0.0015997534 -0.00032953458 0.045137327 -0.020455893
000040 4b 70 62 bc ea 49 a8 3d 5e 1e e0 3b cb 4d 72 3d
       -0.013820718 0.08217223 0.0068395576 0.05915622
000050 cd 5d 7d 3d 46 7a c8 3d 70 8f 16 3e 39 4a 04 be
       0.061857034 0.09788947 0.14703155 -0.12918939
000060 75 36 c0 3d c2 6a 0e be b3 7f f3 3a 95 5f 72 bd
       0.09385387 -0.13907912 0.0018577486 -0.059173185
000070 1d 06 21 3c b8 86 7b 3c 3f 7a 74 bd fa 87 fe 3c
       0.009828118 0.015351944 -0.059686895 0.031070698
000080 bc 6c 12 3e 2d f3 88 3d ed 2d 70 bd a6 c1 7e bd
       0.14299291 0.06687007 -0.05863755 -0.062196396
000090 51 b8 31 be da d6 ef 3d 05 d6 bc 3d 4d a0 b1 bd
       -0.17355467 0.117109016 0.092205085 -0.08673153
0000a0 89 80 90 3b b5 d5 d4 bc fd ed bb 3d c6 39 f1 bb
       0.004409854 -0.02598081 0.09176252 -0.0073616235
0000b0 27 0e 81 bd cb 06 1a 3d 18 d2 2e 3d ef 43 83 bd
       -0.063015275 0.037604135 0.04268083 -0.06409442
0000c0 f3 23 b8 3d dc a5 ac bd 26 ea d7 3d c9 38 63 3d
       0.08991232 -0.08430073 0.10542707 0.055474076
0000d0 d9 b3 3e bd 0e 5c c6 3d 53 bb 18 3e ed df 1c 3d
       -0.046558235 0.09685527 0.14915209 0.03829949
0000e0 86 86 e6 bd 54 23 89 bd e7 d2 0c bc 8f 6d a8 bc
       -0.11256127 -0.066961914 -0.008595205 -0.020560054
0000f0 fb c7 a0 bd 93 25 33 bc 3c c3 bf bd 86 8d e1 bd
       -0.07850643 -0.010934251 -0.0936341 -0.110133216
000100 e5 58 b0 3b ce b3 d4 3d 5b 63 c7 bd 08 d1 bb bd
       0.005381691 0.103858575 -0.097357474 -0.09170729
000110 19 e5 e6 bd f1 4f eb 3d 1f 19 ec bd 81 08 91 bd
       -0.11274166 0.11489857 -0.11528229 -0.070817
000120 75 1b f9 3c 64 fb ed 3c cd 56 33 bd 4d aa 9c bd
       0.0304086 0.029050536 -0.04378395 -0.0764967
000130 50 63 15 bd 4b 70 1f bd c5 3a 92 bd 09 1a 7f 3d
       -0.036471665 -0.03892545 -0.07140116 0.06228069
000140 78 e8 f9 3c 4f 13 3c 3d b2 6e 83 bc cd 80 b7 3b
       0.030506358 0.04591685 -0.016043995 0.005600071
000150 2e 2a e7 bc c7 99 17 3d 25 40 4b 3c d1 5f ad 3b
       -0.028218355 0.037011888 0.01240543 0.005290963
000160 16 ca c3 3d 0f 1d d7 3d f6 c6 36 bc f7 f6 fa ba
       0.09560029 0.10503589 -0.011155834 -0.0019147088
000170 3e 03 f0 bd 00 c4 f1 bd 77 13 5e bd f9 4b 66 3d
       -0.117193684 -0.11804962 -0.054217782 0.056224797
000180 cc d4 e6 3d 15 04 19 bd 30 a8 23 bd 4b 28 0f bd
       0.112710565 -0.03735741 -0.039955318 -0.034950536
000190 fe 07 7b 3c 8f f2 16 3c d2 6e aa 3d 7a ab 16 bd
       0.01532173 0.009213104 0.083219185 -0.036784627
0001a0 98 a3 75 3d fe 91 ef bd b1 16 af bd ae a7 79 bd
       0.05997047 -0.11697768 -0.0854925 -0.060950927
0001b0 91 dd e8 bd 70 6d ba bd 4d f7 84 3d 18 76 b0 3d
       -0.113703854 -0.09102905 0.064924814 0.086162746
0001c0 73 75 3f 3d f4 e4 bc bd a3 e0 dd 3d e6 e2 2a bd
       0.046742868 -0.09223357 0.10833862 -0.041720293
0001d0 64 0a 93 bd 24 90 f4 bd bd 2d 05 3d a4 53 87 bd
       -0.07179716 -0.11941555 0.032514323 -0.0660775
0001e0 4b 33 c5 3c f7 1d cb 3b 9a cf b9 3d cd 95 d5 3b
       0.02407231 0.0061986404 0.090728 0.006518102
0001f0 2f 48 cb bd a2 4d 56 3d df 17 5e 3d 6f 42 b0 bd
       -0.09925877 0.05232013 0.054221984 -0.08606421
000200 70 9a 00 bd 80 af 01 3d f2 72 e6 3d 65 a6 7b 3d
       -0.031397283 0.03166151 0.11252393 0.061437983
000210 21 e8 05 bd 09 87 ce 3d 1a 30 8e bd 6d 28 68 3d
       -0.03269208 0.1008435 -0.069427684 0.056679178
000220 40 57 a0 bd 98 85 0d be 0d 89 be bc d2 a5 01 3d
       -0.078291416 -0.13820493 -0.02325871 0.03165228
000230 76 3c 09 bd 90 cf e6 bc bc 9f f3 b9 b8 21 ae 3d
       -0.033504926 -0.028175145 -0.00046467583 0.08502525
000240 d4 65 cc 3d e5 93 d2 3d 1e 20 73 3d 8a 45 ec bd
       0.0998036 0.10282115 0.0593568 -0.11536701
000250 df f0 d4 3c 2b 55 bf bc 28 6c 99 bc 05 c0 e2 3c
       0.025993763 -0.023356041 -0.01872833 0.027679453
000260 85 49 88 bd 86 98 7b bd c0 ed 82 bd 1d c4 6d bd
       -0.06654648 -0.061424755 -0.063930035 -0.058048356
000270 92 e2 64 3c 42 9e 1b 3d fc 3d 63 3d 22 5e f7 bd
       0.013970034 0.037992723 0.055479035 -0.12078501
000280 a4 ad f4 3d c4 a7 13 bd 54 2a 50 bc 4d 73 cc bd
       0.11947182 -0.036048666 -0.012705404 -0.099829294
000290 e2 22 b2 bd 29 d9 b8 3d 1f 28 9e 3d f9 5f aa 3c
       -0.086980596 0.09025795 0.07722496 0.020797716
0002a0 bd 12 5a 3c 2a 64 84 3d 90 01 81 bd 83 e5 e3 bd
       0.013310132 0.06464417 -0.06299126 -0.1112776
0002b0 71 3e ab 3d d8 c4 cc 3c 6e 5e c4 3d 62 23 44 bd
       0.08361519 0.024996206 0.095883235 -0.047885306
0002c0 f3 7e 23 bd 8e 90 9f 3d 89 19 1e 3c b6 40 83 3d
       -0.03991599 0.077912435 0.009649643 0.06408827
0002d0 43 e9 3c 3d 13 33 a0 3d ce 77 d0 3d 82 83 f3 3b
       0.046120893 0.07822242 0.10179101 0.0074314484
0002e0 4b d4 90 3d e7 13 9c bd 3a 17 b2 3d 99 55 ff bb
       0.07071742 -0.076209836 0.08695836 -0.0077921865
0002f0 fc c4 ab bd c3 53 23 bd 52 1d c1 bd 0f 49 04 3e
       -0.08387181 -0.039874803 -0.094294205 0.12918495

transformer.h.0.attn.c_proj.weight f4 [64, 64]
000000 9d fa 80 3d 38 0a 3b 3e df 12 cb 3d 19 23 0e bb
       0.06297801 0.18265617 0.09915709 -0.00216884
000010 10 4d 10 bd 01 07 de bc 39 0e 15 bd 1b 06 01 be
       -0.035229743 -0.02710295 -0.036390517 -0.12599985
000020 ea 0e 43 3d 78 5a 04 be 48 bc b3 3b b6 d9 80 bd
       0.047621645 -0.12925136 0.0054850914 -0.06291525
000030 ff b0 a6 3d 79 31 b5 bd 7a 63 e3 3c cd 05 d8 bd
       0.08139228 -0.08847327 0.027757395 -0.105479814
000040 d0 b2 7c bc f6 b0 ef 3d 5b a4 a5 3d 8e b2 a5 3d
       -0.015423492 0.117036745 0.08087989 0.08090697
000050 bf e3 19 be 79 e0 b7 3b 9c 98 be bd 89 ba 6c bc
       -0.15028284 0.005611476 -0.09306452 -0.01444877
000060 ac 2d d2 bd ae 3c 7c bc 51 0d 62 3d 56 f3 22 3e
       -0.102626175 -0.015395327 0.05518848 0.15913138
000070 6e 5a 83 bd 63 dd 0d 3e d7 e0 08 3e 46 ce 36 3a
       -0.064137325 0.13853984 0.1336702 0.0006973486
000080 44 7f af bd 76 e3 dc 3d b6 8c 71 3d 70 f3 db bd
       -0.08569196 0.10785572 0.058972083 -0.107397914
000090 39 47 ac 3d 95 72 aa 3d 45 8f ac bc db 54 86 3d
       0.08412022 0.08322636 -0.02106441 0.06559154
0000a0 13 e6 2d 3e c6 a8 48 bc 87 0a 88 bd 83 b5 bb 3d
       0.16982298 -0.01224727 -0.06642633 0.0916548
0000b0 f0 fb d8 bc e0 f8 af bc 3e 1e be 3d 39 ec 9a 3d
       -0.02648732 -0.021480978 0.09283112 0.07564587
0000c0 91 86 b2 bd 88 bd 9a 3d 84 24 10 be c4 98 cb bd
       -0.08717073 0.075556815 -0.1407643 -0.09941247
0000d0 92 1f 68 3d 40 76 1c be 93 84 14 3d 12 79 8d 3d
       0.056670733 -0.15279484 0.036259245 0.06907858
0000e0 f3 43 8e bd f9 de ac 3d 42 0b 83 bd 5c d0 e8 3d
       -0.06946554 0.08440966 -0.06398632 0.113678664
0000f0 97 d2 ef 3d a7 f3 b7 3d 61 ee 8a 3d 74 c9 82 3d
       0.11710089 0.0898202 0.067837484 0.063860804
000100 9c 54 33 3e 7e 20 96 3d c7 c3 a6 bd b8 38 3d 3d
       0.17512745 0.07330416 -0.0814281 0.04619667
000110 39 c5 d3 bd cd 28 44 3d 3b 4d 33 be 0f ce 16 3e
       -0.103403516 0.047890473 -0.1750993 0.14727043
000120 72 3a b9 3d 9e 72 1b 3e 63 18 09 be 25 6e 14 3d
       0.09044351 0.15180442 -0.13388209 0.036237855
000130 83 98 81 3c 09 a3 0e bd 0b 32 e1 bc 75 d4 b5 bd
       0.015819794 -0.03482345 -0.027489683 -0.088784136
000140 59 e8 41 3c 4f 88 c5 3b 0c 74 75 bd e3 cf c2 3d
       0.011835181 0.006028212 -0.059925124 0.095123075
000150 74 39 f4 3d f1 24 b4 bd 83 6c a0 3d 05 f6 ed 3d
       0.11925021 -0.087961085 0.07833197 0.1161919
000160 c8 f8 16 be fa d3 1f be 0e 68 da bd 80 cd 2a 3e
       -0.1474334 -0.15608206 -0.10664378 0.16679955
000170 53 c4 81 bd 10 95 12 bd 58 97 f5 3c 57 50 c9 bd
       -0.06336274 -0.03578669 0.029979393 -0.09829777
000180 9f f5 e4 bd dc ab a2 3d 92 26 83 3d 4a 77 92 3c
       -0.11179661 0.07942936 0.06403841 0.017879147
000190 7d 77 92 bd 6e 07 8c bc 71 7e 1a 3e b9 f7 64 3c
       -0.07151697 -0.017093387 0.15087296 0.013975077
0001a0 27 52 95 bd 06 ab b4 3d d5 70 bf bd 84 f9 23 be
       -0.0729106 0.08821683 -0.09347693 -0.16013151
0001b0 7a 83 f7 3d fa b3 91 3d 51 df 17 bc 01 b9 99 3d
       0.12085624 0.07114406 -0.009269551 0.0750599
0001c0 d5 81 ab 3b 46 72 ad 3d ba dd f2 bd 2b 66 89 3d
       0.005233983 0.084690616 -0.11858697 0.0670894
0001d0 47 fc ad 3d af ba cc 3d aa 92 0d 3e 23 0f 4b 3c
       0.08495384 0.099965446 0.13825479 0.012393746
0001e0 a9 52 aa bd ed 8b a4 3d 55 bb c7 3d d3 16 f8 bd
       -0.083165474 0.08034501 0.097525276 -0.121137284
0001f0 be a6 d8 bd 5d cd 2a bc 81 e9 bd bd d9 fa f6 3d
       -0.105786785 -0.010424939 -0.09273053 0.12059564
000200 d5 05 43 3d 3b d5 ef 3d 4a e3 41 3e 40 aa 51 bd
       0.047612984 0.11710592 0.1893436 -0.051187754
000210 f0 82 28 bd 4d 6c ff 3d 3c 96 c6 3c 15 98 48 3d
       -0.041140497 0.124718286 0.02424156 0.04897316
000220 38 08 fe 3d 10 cc 15 3d a8 b0 9c bc e8 33 6b 3c
       0.12403911 0.036571562 -0.019127205 0.014355637
000230 a7 c0 59 bd e2 87 86 3d 44 8e 95 bd c7 38 c8 3d
       -0.053162243 0.06568886 -0.07302526 0.097764544
000240 8b 81 d0 3d 6c d6 97 3c 97 37 bf bd 01 7b 0a be
       0.10180958 0.018534862 -0.09336775 -0.13523485
000250 f4 5c 07 3e 4c 9d cb ba bc 4e 94 bd 9a 39 15 3d
       0.13219053 -0.0015534549 -0.0724158 0.036431886
000260 c4 4a 97 bd 61 82 f5 bd 5f 9b 0a 3e 61 c3 4a bd
       -0.07387307 -0.119877584 0.13535832 -0.049502734
000270 d5 3a b5 bd 56 7e d5 bb e4 b9 20 bd 7d 0d 84 3d
       -0.08849112 -0.0065153046 -0.03923978 0.06447885
000280 ff 8d c5 bd 65 48 f2 3d c5 7f b7 3d a2 69 cb 3d
       -0.09646224 0.118302144 0.08959917 0.09932257
000290 f4 94 91 3d f9 03 41 bd 57 ca b9 3d 37 35 83 3d
       0.07108489 -0.04712293 0.090717964 0.06406634
0002a0 75 ed a5 3c 16 1b de 3d 02 9c 48 bd 90 1b 77 bc
       0.02025483 0.1084501 -0.048976906 -0.015082255
0002b0 a7 85 58 39 b5 6e 84 3d 2d 6b b3 3d e4 df 86 bd
       0.00020649155 0.06466428 0.087606765 -0.065856725
0002c0 d9 0d ae bd 15 7e a5 bb 37 4f 95 bd d6 7d 18 bd
       -0.08498735 -0.0050504305 -0.072905 -0.03722938
0002d0 74 60 c8 3d b8 cf a0 bc e4 97 8d bd 99 7d 18 bd
       0.09784022 -0.019630298 -0.069137365 -0.037229154
0002e0 9e 07 5f bc c0 92 75 3e c8 58 3e bd 07 d9 ad bd
       -0.013612656 0.23981762 -0.046471387 -0.0848866
0002f0 7d 3d 9f 3d 37 aa 47 3d b2 90 97 bd b4 dd bc bd
       0.077754 0.048746314 -0.07400645 -0.09221974
000300 78 eb 7e bd 9f a8 6d be 14 14 9d 3d cc 0e 07 bd
       -0.06223628 -0.23208855 0.07669845 -0.032973096
000310 02 70 0d 3d 64 c9 63 3d 7b d9 1b bd 66 d5 3b 3d
       0.034530647 0.055611983 -0.038049202 0.04585781
000320 31 1c 3c bd 9c 56 b3 3d 7b 00 c0 bd d7 85 2f 3d
       -0.045925323 0.08756754 -0.09375092 0.04285225
000330 6b dd 87 3d c3 95 be 3d 25 b0 dd bd ae 94 51 bd
       0.06634029 0.093059085 -0.108246125 -0.051167183
000340 58 00 fc 3d cf 31 ae 3c 07 f0 92 bc f6 6b 6b bc
       0.12304753 0.021263985 -0.01793672 -0.014369002
000350 39 ce 09 bd eb 81 e0 bd c9 c3 2e 3c d8 7a 9c bd
       -0.033643935 -0.1096228 0.010666796 -0.07640618
000360 2a 78 92 bd 8f 38 fd 3d 4f 0c d5 3c 26 62 ae bc
       -0.07151826 0.12364303 0.026006846 -0.021287035
000370 a6 29 54 bd af 04 d3 bd 34 0a a7 bd 9a 0b a1 bd
       -0.05179753 -0.10303628 -0.08156243 -0.07863541
000380 40 83 ce 3c ec 7b 43 3d 97 1d d6 3d d7 43 f0 3c
       0.02520907 0.047725603 0.104548626 0.029329224
000390 42 f2 51 bd f0 47 88 3d ae 6d b5 bd a4 4f 28 bd
       -0.051256426 0.06654346 -0.0885881 -0.041091576
0003a0 95 1b b9 3d 98 1d 48 bd 84 a9 d2 bc 51 08 9d 3c
       0.09038464 -0.048856348 -0.025715597 0.019169005
0003b0 9c 3e 40 bd 3f d4 0e bd ed ef 98 3d e8 81 7f bd
       -0.04693471 -0.034870382 0.07467637 -0.062379748
0003c0 ce 71 8e bd 90 90 fc bc 1c 15 1d 3d aa f9 4c 3d
       -0.069553 -0.030830652 0.03835021 0.050042786
0003d0 a9 0b 32 3d 4e 81 97 3d 6a 50 5f 3b 28 88 0e 3b
       0.04346815 0.0739771 0.003407503 0.0021748636
0003e0 c4 bc 2f bd 93 cf 51 3d 76 41 e1 bd 6e 07 b3 3d
       -0.04290463 0.05122335 -0.10998814 0.087416515
0003f0 a6 39 1a be 89 54 3e bd 3b 86 85 bc 75 4a 86 3d
       -0.15061054 -0.046467338 -0.016299358 0.0655717

transformer.h.0.attn.c_proj.bias f4 [64]
000000 5c 1b e5 bc eb 4e 0d be 61 d2 a9 3d 6b c8 d5 3d
       -0.027967148 -0.13799636 0.0829208 0.10438617
000010 3c f4 4f bc 5e 0c 95 bd 7b 6e 80 bd d6 e4 65 bd
       -0.012692507 -0.072777495 -0.062710725 -0.056126438
000020 d6 7d b4 bd 97 72 36 bd 86 ba 00 bd a2 25 90 bd
       -0.08813064 -0.044542875 -0.031427883 -0.07038428
000030 20 53 81 bc f5 f6 9e bd f4 77 0f 3d 15 29 d4 bd
       -0.015786707 -0.07761947 0.035026506 -0.10359398
000040 f5 38 84 3c 87 51 57 3c 1b 64 9f 3d ba e3 e8 3c
       0.01614044 0.013141996 0.077827655 0.028428901
000050 08 31 9d 3d 2a a7 94 bc 52 39 34 3d f0 c7 b5 3c
       0.076753676 -0.018146116 0.043999977 0.022190064
000060 19 d8 8e 3d 63 86 a6 3b 3e cf 8f bd 7e 42 a7 bc
       0.06974811 0.005081938 -0.0702195 -0.020417448
000070 48 ae d4 3c c5 09 a2 bb 2e a6 f6 bc 77 a8 00 be
       0.02596201 -0.0049450123 -0.030108538 -0.12564264
000080 2b d4 60 bd c7 80 aa 3d a8 ad 8a 3d 41 44 ed bc
       -0.05488984 0.083253436 0.067714036 -0.02896321
000090 0a 8c 8f bd bc 62 13 3d 31 90 05 3e 64 fb e8 3b
       -0.07009132 0.035982832 0.13043286 0.007110046
0000a0 5a b8 c4 3d 0c 52 98 3a dd 53 b9 bd d2 0e 45 3c
       0.09605475 0.0011621132 -0.09049199 0.012027459
0000b0 38 92 af 3d 2c 01 59 3d 14 85 e5 bd 5e f4 b6 3d
       0.08572811 0.052979633 -0.11207023 0.08933328
0000c0 1d ad 8c bc b4 7c 92 3d 03 7b c2 bd ff f4 7c bd
       -0.01717239 0.071526915 -0.09496119 -0.061757084
0000d0 42 8a d7 3d 40 e2 a3 bd 6f b9 9c bd 18 62 26 bd
       0.105244175 -0.08002138 -0.07652556 -0.040620893
0000e0 15 19 9e 3c 7d c5 d5 3d a8 ad 5f bc 30 9c b2 3d
       0.01929907 0.104380585 -0.013652243 0.08721197
0000f0 e5 36 04 3d 8f 58 d2 bc 77 bd 01 bd a9 bb d7 3d
       0.032278914 -0.025676994 -0.03167483 0.1053384

transformer.h.0.ln_2.weight f4 [64]
000000 8e 37 82 3f 80 10 74 3f 76 30 80 3f 6c ba 74 3f
       1.0173204 0.95337677 1.0014789 0.9559696
000010 ab e2 78 3f af 60 81 3f 19 8f 8a 3f a1 f2 85 3f
       0.9722087 1.010763 1.082492 1.046467
000020 80 5c 73 3f 18 ab 77 3f cd 51 7c 3f 5d b7 87 3f
       0.9506302 0.96745443 0.9856232 1.0602833
000030 97 b0 81 3f f9 12 81 3f 85 7e 77 3f 57 87 80 3f
       1.0132016 1.0083915 0.9667743 1.0041302
000040 f8 6a 7b 3f 70 1a 6d 3f 1a 6e 7f 3f b9 8a 70 3f
       0.98210096 0.92618465 0.99777377 0.93961674
000050 b1 d1 80 3f 94 c0 83 3f 23 f4 76 3f 90 8c 82 3f
       1.0063993 1.0293145 0.96466273 1.0199146
000060 41 af 80 3f 96 f0 72 3f 22 c3 81 3f 42 c0 7b 3f
       1.0053483 0.94898355 1.0137675 0.9834024
000070 56 d1 76 3f 01 b5 7c 3f 69 f4 77 3f 5c cc 7c 3f
       0.9641317 0.9871369 0.96857315 0.9874933
000080 fb 83 75 3f f4 b3 77 3f 47 2f 81 3f 00 b8 83 3f
       0.9590451 0.9675896 1.0092553 1.0290527
000090 f0 c6 7b 3f 7e b0 78 3f d6 d4 80 3f 9c 37 81 3f
       0.9835043 0.97144306 1.0064952 1.0095096
0000a0 b6 17 87 3f e2 ab 7a 3f f1 c4 7e 3f ac d1 7f 3f
       1.0554111 0.9791852 0.9951926 0.9992931
0000b0 30 b5 82 3f 84 57 80 3f 74 3f 78 3f 8b 16 7f 3f
       1.0211544 1.0026708 0.9697182 0.9964377
0000c0 e9 2c 88 3f c6 00 80 3f 4c 7b 79 3f 02 05 83 3f
       1.0638705 1.0000236 0.9745376 1.0235903
0000d0 cc 55 7c 3f 19 30 75 3f b7 fe 79 3f a2 4b 80 3f
       0.98568416 0.95776516 0.9765429 1.0023081
0000e0 81 f6 85 3f c8 dc 75 3f 21 c2 84 3f 69 34 8a 3f
       1.0465852 0.9604001 1.0371743 1.0797244
0000f0 d7 bb 85 3f 81 ec 81 3f 14 52 7b 3f b7 da 79 3f
       1.0447949 1.01503 0.98172116 0.9759936

transformer.h.0.ln_2.bias f4 [64]
000000 e4 0e c7 3c 26 e4 19 bc 68 24 f6 3c 16 ff be bb
       0.024299093 -0.009392774 0.030046657 -0.0058287485
000010 da 24 b4 3a 20 35 8d bd a5 ec c6 bc 7c 99 36 bc
       0.0013743893 -0.068948984 -0.024282763 -0.011144992
000020 43 9e 2f 3d ed 59 5a bd 57 85 7b bd 2a 2e 7e bd
       0.04287554 -0.053308416 -0.06140646 -0.062055744
000030 b9 0e 7c bc b4 63 c8 bc 4f 78 96 3c 69 f0 03 3d
       -0.0153843695 -0.024461605 0.018367914 0.032211695
000040 e3 07 00 3d 52 0a 9f 3c 33 97 fe 3c 41 5a 02 bc
       0.03125752 0.0194141 0.031077957 -0.0079560885
000050 45 7e 0e bc 31 68 21 bd 95 b0 4a bd a1 e4 26 3c
       -0.008697097 -0.039406005 -0.049484808 0.010186345
000060 2e 8e 32 bd 86 96 a7 bc bd fb 6e 3d 32 46 1a bd
       -0.043592624 -0.020457517 0.058345545 -0.0376646
000070 2c 33 84 3a 3c 64 f1 bc 4d d9 ee bc 6f 10 44 bd
       0.0010086051 -0.02946674 -0.029156351 -0.047867235
000080 91 e6 93 bc 2f 44 8b bc 62 0e a4 3b c9 5c f2 3c
       -0.018054279 -0.017000286 0.0050065974 0.029585259
000090 8e a9 8f bc 18 ba 07 bd 3e 0a 3a 3c a9 e0 16 3d
       -0.017536905 -0.033136457 0.011354981 0.036835346
0000a0 0a ab 5e bd 17 33 bb 3a 98 1c f2 bc 2f 9f b6 bb
       -0.054362334 0.0014282194 -0.02955465 -0.0055731754
0000b0 95 16 90 3b 60 dc c5 3c dd 33 1e bd 65 c6 2d bd
       0.0043972232 0.024152935 -0.03862368 -0.042425532
0000c0 d1 95 6f 3a 88 25 b2 3b 84 62 bf 3c b0 27 98 3d
       0.0009139451 0.005436603 0.023362406 0.07429445
0000d0 a3 54 7c 3c 49 d5 2e 3d 46 0a 7b bb 22 3b 44 3d
       0.015401038 0.042683873 -0.0038305684 0.047907956
0000e0 2b 99 23 bd 13 e5 e0 ba cd a0 b3 bc c9 1c 4d 3d
       -0.039940994 -0.0017158113 -0.021927262 0.05007628
0000f0 ab af 7b bc ee 71 8f 3d 43 73 e8 bc c0 43 1a 3d
       -0.015361707 0.07004152 -0.028375274 0.037662268
